Models/18_SingleLSTMNet.pth (torch, 734495 bytes, 22 tensors)

weight_ih_l0 f4 [160, 1]
0	0xbde2d2b9	-0.110753484
1	0xbd2b5618	-0.041830152
2	0xbe7148c6	-0.23562917
3	0xbe513ad3	-0.20432596
4	0x3ded2df9	0.11581034
5	0xbe4321ec	-0.19055909
6	0x3e00d080	0.12579536
7	0x3dd4cacf	0.10390245
8	0xbda115bb	-0.07865473
9	0x3de7457b	0.11292549
10	0xbd8e3c63	-0.069451116
11	0x3e0eff10	0.13964486
12	0x3e441205	0.19147499
13	0x3e1b74af	0.1518123
14	0x3e80dcd8	0.2516849
15	0xbd9a07c7	-0.07521015
16	0x3bd97b08	0.006636981
17	0x3dfdf6dd	0.12400601
18	0xbd8de552	-0.06928505
19	0x3d4e7918	0.050408453
20	0xbe8f9bb1	-0.2804847
21	0x3e2013e3	0.15632586
22	0x3de27b00	0.11058617
23	0x3d06a9e8	0.03287688
24	0x3e4d5335	0.20051272
25	0xbd69abcd	-0.057048608
26	0x3e4fad5f	0.2028098
27	0x3d90e883	0.07075598
28	0x3dd7495d	0.1051204
29	0x3d0935b8	0.033498496
30	0x3e0ce26b	0.13758247
31	0x3cb97700	0.022639751
32	0xbb0e92f4	-0.0021755071
33	0x3e5b9a36	0.21445546
34	0x3df79c46	0.12090354
35	0x3e508723	0.2036405
36	0x3e561cff	0.20909499
37	0xbe4519b7	-0.1924809
38	0xbe5013b1	-0.20320012
39	0x3e2e8592	0.1704314
40	0xbee3522d	-0.44398633
41	0xbeee643a	-0.46560842
42	0xbd7c88a3	-0.061653744
43	0x3db36ada	0.08760615
44	0xbe2b71f5	-0.1674269
45	0xbee8a5f5	-0.45439115
46	0xbeecf6de	-0.46282095
47	0x3e111de4	0.14171559
48	0x3de4b7a3	0.111678384
49	0xbe28a249	-0.16468157
50	0xbe835e26	-0.25657767
51	0xbe5e02de	-0.21680781
52	0x3de7e96a	0.11323817
53	0xbe8f212e	-0.27955002
54	0x3c9151ae	0.017739143
55	0xbe9d72e8	-0.3075173
56	0xbecda3a8	-0.40163922
57	0xbe4e14aa	-0.2012507
58	0xbe109693	-0.1411994
59	0x3d88bda8	0.06676799
60	0xbeedbe4a	-0.46434242
61	0x3d50db84	0.050990596
62	0xbe112203	-0.1417313
63	0xbe4a58dc	-0.1976046
64	0xbe2e236e	-0.17005703
65	0xbe11f1af	-0.14252351
66	0x3c80564a	0.015666146
67	0xbeb50cfb	-0.35361466
68	0xbe926c35	-0.2859818
69	0xbee13b15	-0.4399039
70	0x3e69013a	0.22754374
71	0xbeb5ff10	-0.3554616
72	0x3e032733	0.12807922
73	0x3de76ecc	0.1130043
74	0x3e74efb1	0.2391956
75	0xbea75481	-0.3268166
76	0xbcb5e379	-0.022203194
77	0xbe19fc46	-0.15037641
78	0x3e26afaf	0.16277955
79	0x3e49d8b5	0.19711573
80	0xbeceaf72	-0.4036823
81	0xbeff543c	-0.49868953
82	0x3e4cd54a	0.20003238
83	0xbd5119ad	-0.051049877
84	0x3d044302	0.032290466
85	0xbec227e2	-0.37921053
86	0x3e9cac05	0.3059999
87	0xbdcbdc50	-0.09954131
88	0xbdac1b39	-0.0840363
89	0x3e79649c	0.24354786
90	0xbefa09ee	-0.488357
91	0xbf17a74e	-0.5923966
92	0xbef3f58d	-0.47648278
93	0x3e3ddca9	0.18541206
94	0xbea81cc3	-0.32834443
95	0xbeb23637	-0.34806988
96	0x3f093e1a	0.53610384
97	0xbec8ccf0	-0.39218855
98	0xbe925a3c	-0.28584468
99	0x3e80ef0d	0.2518238
100	0xbe720035	-0.23632891
101	0x3f10436c	0.5635288
102	0xbf0779e9	-0.52920395
103	0xbdecc5ad	-0.11561141
104	0x3f0fa3b0	0.5610914
105	0x3ebfb1f6	0.3744046
106	0xbc59d938	-0.013296418
107	0x3e229d69	0.1588036
108	0x3f3705d6	0.7149328
109	0x3e2f68d0	0.17129827
110	0x3cb41661	0.021983327
111	0xbf004acd	-0.50114137
112	0xbef8b198	-0.48572993
113	0x3eca466b	0.3950685
114	0xbf26dd5a	-0.65181506
115	0xbec9d4c1	-0.3942013
116	0x3e1c8b02	0.15287402
117	0xbcded284	-0.027199991
118	0x3dcc7826	0.09983854
119	0x3e3c8ae3	0.18412356
120	0xbdc89f52	-0.09796013
121	0x3dc75c5e	0.097344145
122	0xbdff11b4	-0.124545485
123	0xbde2d478	-0.110756814
124	0xbd136763	-0.03598727
125	0xbe8204d6	-0.25394315
126	0xbd6f1d92	-0.05837781
127	0x3e279ac1	0.16367628
128	0xbe02b116	-0.12762865
129	0x3d0a37cb	0.033744615
130	0xbd7c7ea3	-0.061644208
131	0xbca277e1	-0.019832553
132	0x3e4a7aa6	0.19773349
133	0xbe1ade0f	-0.15123771
134	0x3ea72194	0.32642806
135	0x3d6efc57	0.05834612
136	0xbdfb29b5	-0.12263814
137	0x3dd47718	0.10374278
138	0x3de6b081	0.11264134
139	0x3e02fe5f	0.12792347
140	0xbe27a0f5	-0.16369994
141	0x3e63bf2f	0.222409
142	0x3d3fca28	0.04682365
143	0xbc02884c	-0.007967066
144	0x3db994a8	0.09061557
145	0xbe1c4c11	-0.15263392
146	0xbd115aa6	-0.03548684
147	0xbe2c8bd9	-0.16850223
148	0x3ddf2c9f	0.10897183
149	0xbd5f243c	-0.054477915
150	0x3e125e29	0.14293732
151	0x3dbe5335	0.09293214
152	0xbd0695fd	-0.032857884
153	0x3e9131b7	0.28358242
154	0xbaa7cd0f	-0.0012802201
155	0xbdbcb9a3	-0.09215095
156	0x3c7bd7df	0.015371292
157	0xbb4422f8	-0.002992807
158	0xbd176a6a	-0.03696672
159	0x3d3da348	0.046298295

weight_hh_l0 f4 [160, 40]
0	0xbdaa012e	-0.08301006
1	0x3dc3b7a9	0.09556515
2	0xbe034c04	-0.12821966
3	0x3e2cc537	0.16872106
4	0xbe1026de	-0.14077327
5	0x3e2f2a33	0.17105941
6	0xbde014e6	-0.10941486
7	0xbd502f4b	-0.050826352
8	0x3e5f76ab	0.21822612
9	0xbd1ae652	-0.037817307
10	0x3c625853	0.013815003
11	0x3dd3ed72	0.103480235
12	0xbd1e5ac5	-0.038660783
13	0xbe123757	-0.14278923
14	0x3c2aa14e	0.010414435
15	0xbc7a6002	-0.015281679
16	0xbd9d051c	-0.0766699
17	0xbd5dc103	-0.05413915
18	0x3e195f71	0.14977814
19	0x3d3d149d	0.046162236
20	0x3e38af25	0.18035562
21	0x3db80075	0.08984462
22	0x3d852554	0.065012604
23	0xbde4ab0a	-0.111654356
24	0xbe0d0b83	-0.13773923
25	0x3cda1eda	0.02662604
26	0x3dee61a6	0.11639719
27	0xbb4fa62c	-0.003168474
28	0xbb21a693	-0.0024665936
29	0x3da81943	0.08207943
30	0xbe05a72f	-0.13052057
31	0x3d17106b	0.03688089
32	0x3cc170df	0.023613391
33	0xbd5bb195	-0.053636152
34	0xbc58a277	-0.013222328
35	0xbd041a53	-0.032251667
36	0x3d89feba	0.06738038
37	0x3e0ce9fc	0.13761133
38	0x3d2421c3	0.04007126
39	0xbc9385c6	-0.018008124
40	0x3d80cc05	0.06288914
41	0x3ea0dbd0	0.31417704
42	0xbe5949e7	-0.21219598
43	0x3e17ca16	0.14823183
44	0x3dc650cb	0.09683379
45	0x3d0aa4ca	0.03384856
46	0xbd269122	-0.040665753
47	0x3e0f7869	0.14010777
48	0x3e6cf791	0.23141314
49	0xbeaf17b5	-0.34197775
50	0x3e8cf88d	0.2753338
51	0x3e18d01a	0.14923134
52	0xbcb1a543	-0.021685248
53	0xbd8ff693	-0.07029452
54	0xbd2250b1	-0.039627735
55	0x3e4e7122	0.20160344
56	0xbe4da51e	-0.20082518
57	0x3e406fc8	0.18792641
58	0x3e1f477c	0.15554613
59	0xbe95b46c	-0.29239213
60	0x3d6b0851	0.057380978
61	0xbe198c6d	-0.14994974
62	0x3e713009	0.2355348
63	0x3d604e8f	0.05476242
64	0xbd605bef	-0.054775175
65	0xbd40bb02	-0.047053345
66	0xbcc90d01	-0.024542334
67	0xbe6b3c01	-0.22972108
68	0xbde620d0	-0.11236727
69	0xbe41c18c	-0.18921489
70	0x3d2cf81f	0.042228814
71	0x3dfba09e	0.12286495
72	0x3e0b9155	0.13629659
73	0xbe1ca224	-0.15296227
74	0x3d6b3d87	0.057431724
75	0x3e1b4f11	0.1516688
76	0xbd38109a	-0.044937707
77	0xbe331741	-0.1748934
78	0xbd5347db	-0.0515822
79	0xbb912621	-0.004429594
80	0x3e40845d	0.18800493
81	0x3cc24431	0.023714157
82	0x3e662e28	0.22478545
83	0x3e327fe0	0.17431593
84	0x3d072e08	0.033002883
85	0x3e64c79a	0.22341767
86	0x3d700af1	0.058604185
87	0xbdaac45b	-0.08338233
88	0xbd61de00	-0.055143356
89	0x3e13ec90	0.1444571
90	0x3e4025fc	0.1876449
91	0x3c9f0280	0.019410372
92	0x3de322f7	0.110906534
93	0x3e4cf43f	0.20015047
94	0xbd03e76c	-0.032203123
95	0x3e869d72	0.26291996
96	0xbda39b06	-0.07988553
97	0x3d3bc9ef	0.045846876
98	0x3e632c83	0.22184949
99	0xbdd0dd0f	-0.101984136
100	0xbdf3d092	-0.11905016
101	0xbe79cf1d	-0.24395414
102	0x3d246420	0.04013455
103	0x3dd5f6f8	0.10447496
104	0xbe275d7d	-0.16344257
105	0xbd8f3cc4	-0.06994012
106	0x3e0d8519	0.13820304
107	0x3d2da95e	0.04239785
108	0x3dc19427	0.09452086
109	0xbdf98d25	-0.12185124
110	0x3dde223e	0.10846375
111	0x3e34603a	0.17614833
112	0x3bfd57f0	0.00773143
113	0xbe8515ee	-0.25993294
114	0x3d7ee878	0.06223342
115	0x3e44a7e4	0.1920467
116	0x3ddc3d36	0.107538626
117	0x3e7db759	0.24776973
118	0x3ce49485	0.02790285
119	0xbce421f8	-0.027848229
120	0xbd8b2aa6	-0.06795244
121	0x3dedcb7d	0.11611078
122	0xbe070653	-0.13186006
123	0xbe0c7c8d	-0.13719387
124	0x3da46f36	0.08029024
125	0xbdde9d72	-0.10869874
126	0xbd88a15f	-0.06671404
127	0x3e96a3c9	0.29421833
128	0x3d908a12	0.07057585
129	0x3c8e9b74	0.01740811
130	0xba441293	-0.00074795744
131	0xbc84f80c	-0.01623156
132	0x3d8fcba4	0.07021263
133	0xbd97c4da	-0.07410593
134	0xbd63aa67	-0.05558243
135	0xbd1c6ac6	-0.038187765
136	0xbce8133b	-0.028329482
137	0x3da3cf63	0.0799854
138	0x3e5b09a2	0.21390393
139	0x3d95cac9	0.07314069
140	0x3c4478a9	0.011991658
141	0xbe33d83a	-0.17562953
142	0x3ca7530c	0.020425342
143	0xbe2daab5	-0.16959651
144	0x3db6135d	0.08890412
145	0xbdaa43f0	-0.08313739
146	0x3cee440c	0.029085182
147	0x3da5ba63	0.08092191
148	0xbd2ea147	-0.042634275
149	0x3e330363	0.1748176
150	0xbd2dd5f3	-0.042440366
151	0xbc8ffc4e	-0.017576363
152	0x3dd85f29	0.10565025
153	0xbc639fea	-0.013893107
154	0x3dfd174f	0.123579614
155	0xbe0f9bf0	-0.14024329
156	0xbdba00ed	-0.09082208
157	0x3d283144	0.04106261
158	0xbdb82925	-0.08992223
159	0x3d783718	0.060599416
160	0xbd2a397e	-0.041558735
161	0xbcb2e9dc	-0.021840028
162	0xbe4df7fb	-0.20114128
163	0xbe185f17	-0.14880024
164	0x3dc420e6	0.095765874
165	0xbe0cc17a	-0.1374568
166	0xbddddf5f	-0.1083362
167	0x3e9af2b9	0.30263308
168	0x3e2dc817	0.1697086
169	0x3da5fd64	0.08104971
170	0x3e55b653	0.20870332
171	0x3b62da98	0.0034615155
172	0x3dbea652	0.09309067
173	0x3cfa1e01	0.030531885
174	0x3d83f232	0.064426795
175	0xbd468d07	-0.048474338
176	0xbd7a2a87	-0.061075713
177	0x3c35a6f3	0.011087167
178	0x3e5da24e	0.21643946
179	0xbd82b5ea	-0.063823536
180	0xbe577b82	-0.21043208
181	0xbe335e36	-0.17516407
182	0x3d971008	0.073761046
183	0xbd4ce00e	-0.050018363
184	0xbe49fa86	-0.19724473
185	0x3e49cdb7	0.1970738
186	0x3d1709c7	0.03687456
187	0xbcd759b0	-0.026287884
188	0xbbc45797	-0.005991887
189	0xbd8d7963	-0.06907918
190	0xbd055b32	-0.032557674
191	0xbe0e0b7d	-0.1387157
192	0x3c89bbda	0.016813207
193	0xbe8478dd	-0.2587346
194	0x3d1202cf	0.03564721
195	0xbbf2f1ca	-0.0074140774
196	0xbdfcdb66	-0.123465344
197	0x3dc14564	0.09437063
198	0x3dc99a5c	0.09843895
199	0xbc3d96f6	-0.011571636
200	0x3e5164fa	0.20448676
201	0x3e6728d6	0.22574171
202	0xbe664e39	-0.22490777
203	0xbd9f8a03	-0.077899955
204	0x3d269fc6	0.040679716
205	0x3dc41528	0.09574348
206	0x3d3f26ae	0.046667747
207	0x3e53a05e	0.20666644
208	0x3e82c038	0.25537276
209	0xbe1f1f33	-0.15539245
210	0x3dc2ae90	0.095059514
211	0x3e954b3c	0.29158962
212	0xbd2dfbfe	-0.042476647
213	0xbe094b8d	-0.13407727
214	0x3e23abdc	0.15983528
215	0x3d23660e	0.03989225
216	0xbe1dddf8	-0.15416706
217	0x3e2ac7c8	0.16677773
218	0x3e673bda	0.22581425
219	0xbdfa12f8	-0.12210649
220	0x3e169106	0.1470376
221	0xbc4f7bc5	-0.012663786
222	0x3dd43f88	0.1036368
223	0xbd1e76b6	-0.03868743
224	0xbe00088b	-0.12503259
225	0xbe3b213c	-0.18274397
226	0xbd323301	-0.043505672
227	0xbe5fc9fa	-0.21854392
228	0x3b29a64c	0.0025886474
229	0x3c8e5739	0.017375575
230	0xbd120ac8	-0.035654813
231	0xbc5356fb	-0.012899156
232	0x3e325c16	0.1741794
233	0xbdc77572	-0.09739198
234	0x3e92e138	0.28687453
235	0x3d4d70f8	0.050156564
236	0xbcb45a0e	-0.022015598
237	0xbc1a025c	-0.009399977
238	0xbe1b4139	-0.15161599
239	0xbe021a1c	-0.12705272
240	0x3dc5aa2f	0.096516006
241	0xbd956361	-0.07294346
242	0xbd072a3e	-0.03299927
243	0xbdc9ec5d	-0.09859536
244	0xbd2ff72d	-0.042960335
245	0x3c9bcde8	0.019019082
246	0x3d536599	0.051610563
247	0x3e6a7303	0.22895436
248	0x3e948773	0.2900959
249	0xbe92e793	-0.28692302
250	0xbd0c119f	-0.034196492
251	0x3e23eb0a	0.16007629
252	0x3e4562ff	0.19276045
253	0xbe00f81a	-0.12594643
254	0x3ce9ace2	0.02852482
255	0xbde4b4a6	-0.111672685

bias_ih_l0 f4 [160]
0	0x3c985131	0.018593403
1	0x3da8830b	0.082281195
2	0xbe891143	-0.26770982
3	0xbd866bea	-0.06563552
4	0xbef42cc9	-0.47690418
5	0xbdb85e29	-0.090023346
6	0xbc83870c	-0.016055606
7	0xbe14d9e3	-0.14536242
8	0xbe6d4c8d	-0.23173733
9	0x3b851826	0.0040617166
10	0x3ce5d23e	0.028054353
11	0x3ce65e20	0.028121054
12	0x3deba56a	0.115061596
13	0xbd07beb5	-0.033140857
14	0xbd1b56db	-0.03792463
15	0x3d5ad032	0.053421207
16	0xbe145bca	-0.1448814
17	0xbd2dba9f	-0.042414304
18	0xbc001973	-0.007818568
19	0xbe584878	-0.21121395
20	0xbe223f26	-0.15844402
21	0x3e1aa346	0.15101346
22	0x3e00aead	0.12566634
23	0xbd9fea11	-0.078083165
24	0x3e18e591	0.14931323
25	0x3d9b4b9b	0.0758278
26	0xbdb2822e	-0.08716236
27	0x3cf47276	0.029839735
28	0x3e5a7223	0.21332602
29	0xbe812f3c	-0.2523135
30	0xbe857455	-0.26065317
31	0xbd6decc9	-0.058087144
32	0xbe1ed5f8	-0.1551131
33	0x3d04f8b8	0.03246376
34	0xbe019ca6	-0.12657413
35	0xbc2faf0a	-0.010722885
36	0xbe388a0f	-0.18021415
37	0xbd4b3517	-0.049611177
38	0xbeb16867	-0.34649965
39	0xbe989794	-0.29803145
40	0xbdccb0db	-0.0999467
41	0x3e1ae9d6	0.15128264
42	0x3d4a4955	0.04938634
43	0xbd2777f8	-0.040885895
44	0xbe33d615	-0.17562135
45	0xbd700092	-0.058594294
46	0xbe501a97	-0.20322643
47	0xbe79e430	-0.24403453
48	0xbe0a67de	-0.13516185
49	0xbea5b4cf	-0.32364509
50	0xbd56719f	-0.05235445
51	0x3df8d21f	0.121494524
52	0x3d9900b0	0.07470834
53	0xbd2d39f0	-0.04229158
54	0x3de587cd	0.112075426
55	0xbe1dc8a2	-0.15408567
56	0xbb97fd0d	-0.0046383203
57	0x3d7ec9ac	0.062204048
58	0xbdd20b5b	-0.10256072
59	0xbe445b73	-0.1917551
60	0xbcadcce0	-0.021215856
61	0x3e84299c	0.25812995
62	0x3d55a1f1	0.052156392
63	0xbe42ecb7	-0.19035612
64	0x3e95e4d3	0.29276142
65	0x3db199b4	0.08671895
66	0x3dba1469	0.09085924
67	0xbeb2bd38	-0.34909987
68	0xbc23d0aa	-0.00999848
69	0xbe82a974	-0.25519907
70	0xbeaa6571	-0.3328052
71	0x3ccf9c63	0.025343126
72	0xbdbb3b6e	-0.09142195
73	0x3da53127	0.08066016
74	0x3dadf1fc	0.084934205
75	0x3da1fd92	0.07909693
76	0xbe8fb450	-0.28067255
77	0xbe26f96a	-0.16306081
78	0xbe5f0e96	-0.21782908
79	0xbe5b63f0	-0.21424842
80	0x3db4f82b	0.08836397
81	0x3cfa17a5	0.030528853
82	0xbdeacab5	-0.114644445
83	0x3d6409bc	0.055673346
84	0xbdd6ce8c	-0.104886144
85	0x3d223c5c	0.039608344
86	0xbce1b127	-0.027550293
87	0xbd11110e	-0.035416655
88	0xbd205005	-0.039138813
89	0x3dd8568c	0.105633825
90	0xbd12ef33	-0.03587265
91	0xbd04c6b1	-0.03241605
92	0xbdf8eeb9	-0.12154908
93	0xbdee6ccf	-0.11641847
94	0xbdca20cc	-0.09869537
95	0x3c994f19	0.018714475
96	0xbd91e424	-0.071235925
97	0x3da7c1dd	0.08191273
98	0xbd4ab115	-0.049485285
99	0xbd693d30	-0.05694312
100	0x3d6bfad7	0.057612266
101	0xbd68ca58	-0.056833595
102	0x3d465c0f	0.048427638
103	0x3d0a4c89	0.033764396
104	0x3d04a2c0	0.032381773
105	0x3da578b1	0.08079661
106	0xbc6765f5	-0.01412343
107	0xbd8af058	-0.06784123
108	0x3ca3d45a	0.019998718
109	0x3df0da98	0.117604434
110	0xbc9357f9	-0.017986285
111	0x3dcf6024	0.10125759
112	0xbdc70737	-0.09718173
113	0x3de052e9	0.10953314
114	0xbd849cc9	-0.06475217
115	0x3db3bd61	0.087763555
116	0xbd364d6d	-0.044507433
117	0x3d1c340d	0.038135577
118	0xbd608dd0	-0.054822743
119	0xbcffe905	-0.031239042
120	0xbd135e0a	-0.035978355
121	0x3de1d153	0.110262536
122	0xbcc4b999	-0.024014281
123	0x3caa8720	0.020816386
124	0xbedcbd50	-0.43113184
125	0xbdd6afc6	-0.10482745
126	0xbe56099e	-0.20902106
127	0xbc3d5cf2	-0.011557804
128	0xbd51c29b	-0.05121098
129	0xbe2f21da	-0.17102757
130	0x3e3be63f	0.1834955
131	0x3e7101f5	0.23535903
132	0x3d68a967	0.05680218
133	0xbe8187e2	-0.25298983
134	0xbd8f67fd	-0.07002256
135	0xbdfcd6d2	-0.12345661
136	0xbdcbb559	-0.09946699
137	0xbd9b64c4	-0.07587579
138	0xbdeedc8e	-0.11663161
139	0xbe7e5245	-0.24836071
140	0x3b13327d	0.0022460513
141	0xbda725cc	-0.08161506
142	0x3e26fdac	0.16307706
143	0xbe8220f2	-0.2541576
144	0x3dae3aac	0.085072845
145	0xbb94450d	-0.004524833
146	0xbe7b49cd	-0.24539872
147	0xbddb2e9f	-0.10702252
148	0xbd0a423e	-0.03375458
149	0xbe88e719	-0.26738814
150	0xbe609038	-0.21930015
151	0x3e136178	0.1439265
152	0x3dc7e039	0.09759564
153	0xb91335b0	-0.00014039013
154	0x3d0ae62e	0.033910923
155	0xbda2935e	-0.07938264
156	0xbe3e66d4	-0.18593913
157	0xbe63982c	-0.22226018
158	0xbe5d53d9	-0.21614017
159	0xbe1c59c9	-0.15268625

bias_hh_l0 f4 [160]
0	0x3de548f6	0.11195557
1	0x3c3dcbb9	0.011584216
2	0xbe8d7f83	-0.27636346
3	0xbe696ab8	-0.22794616
4	0xbeab6d09	-0.33481625
5	0xbd3d010c	-0.046143577
6	0xbe2cf5e7	-0.1689068
7	0xbd95f4bc	-0.0732207
8	0xbe895da9	-0.2682927
9	0xbdf9d4f0	-0.12198818
10	0xbda4aec4	-0.080411464
11	0x3e37fc47	0.1796733
12	0x3d6afa93	0.057367872
13	0xbe2c40b7	-0.16821562
14	0x3b44a27a	0.003000407
15	0xbe559315	-0.20856889
16	0xbe2b754e	-0.16743967
17	0x3d1848b3	0.037178706
18	0xbe91c5c4	-0.28471196
19	0xbde30d17	-0.11086481
20	0x3c4f79a6	0.012663281
21	0x3e43ba72	0.19114092
22	0xbd218815	-0.03943642
23	0xbe8156fa	-0.2526167
24	0x3e0de315	0.13856156
25	0xbdddc085	-0.10827736
26	0xbdca7af2	-0.09886731
27	0xbe2d54ae	-0.16926834
28	0x3e57ce31	0.2107475
29	0xbe59d3d0	-0.21272206
30	0xbef2ab2b	-0.47396216
31	0x3bbc2e3e	0.005742817
32	0x3d3feadb	0.046854835
33	0xbd989c96	-0.074517414
34	0xbcd4e4ad	-0.025987947
35	0xbdba189b	-0.09086724
36	0xbd826150	-0.06366217
37	0x3cbd2166	0.023087215
38	0xbecdde6a	-0.4020875
39	0xbe86dcab	-0.2634023
40	0xbc51a00e	-0.012794508
41	0x3d4da57f	0.050206657
42	0x3d428ba5	0.047496457
43	0xbe726fc6	-0.2367545
44	0xbe313ba1	-0.17307903
45	0xbdb74a4f	-0.0894972
46	0xbd8f9f99	-0.07012863
47	0xbe3e21f7	-0.18567644
48	0xbe6439f0	-0.22287726
49	0xbe9f6693	-0.31132945
50	0x3d8b18c0	0.0679183
51	0xbd00f578	-0.031484097
52	0x3dd25bb0	0.10271394
53	0xbe9d6f77	-0.30749103
54	0x3e2fd572	0.17171267
55	0x3cae3d81	0.021269562
56	0xbc9018bb	-0.017589917
57	0x3d4e38fe	0.05034732
58	0x3bc1bc2c	0.0059123244
59	0xbe886e17	-0.26646492
60	0xbd838f26	-0.06423788
61	0x3d19c9fa	0.037546135
62	0x3ce68790	0.028140813
63	0xbea6ef81	-0.32604602
64	0x3ec78f07	0.3897631
65	0xbdd15e36	-0.102230474
66	0x3d1de93a	0.0385525
67	0xbe2e28da	-0.17007771
68	0xbcc88567	-0.024477674
69	0xbddb7343	-0.10715344
70	0xbe973a37	-0.29536602
71	0xbb359909	-0.0027709624
72	0xbbfa579b	-0.007639838
73	0x3c561ebd	0.013068852
74	0xbc4a750d	-0.012357009
75	0xbe02a94e	-0.12759897
76	0xbe82e711	-0.25566915
77	0xbe3517d6	-0.17684874
78	0xbee04370	-0.4380145
79	0xbe7718a8	-0.241305
80	0xbdb44837	-0.088028364
81	0xbb8117a3	-0.0039395853
82	0x3e1001b2	0.14063147
83	0xbd5cdc92	-0.05392129
84	0x3db227e0	0.08699012
85	0xbd58dde4	-0.052945986
86	0x3c822dc9	0.015890973
87	0xbd238e0a	-0.03993038
88	0x3cf3399c	0.029690556
89	0xbdb6d8fc	-0.08928105
90	0x3c81017a	0.015747774
91	0x3d01f931	0.031731788
92	0x3dee902d	0.11648593
93	0x3db478ef	0.08812129
94	0x3dcb893c	0.09938285
95	0xbd698329	-0.05700985
96	0xbd3ed57f	-0.046590324
97	0x3cff0973	0.031132435
98	0xba4a922d	-0.00077274704
99	0x3dadb49e	0.084817156
100	0x3d9d699c	0.07686159
101	0x3d55329a	0.05205021
102	0xba1098b6	-0.000551592
103	0xbbf259be	-0.007395952
104	0xbd3898b9	-0.045067523
105	0xbdfbdba9	-0.12297756
106	0x3c5feef3	0.01366781
107	0x3daa42dd	0.083135344
108	0xbb57ac1f	-0.0032908989
109	0xbdec7e54	-0.11547533
110	0x3d524d3e	0.051343195
111	0x3b6da46e	0.0036261338
112	0x3d4f008d	0.050537635
113	0x3d14c507	0.036320712
114	0xbd97f6ef	-0.07420146
115	0xbd9a4053	-0.075318
116	0x3c08b235	0.008343269
117	0xbc80a1fd	-0.015702242
118	0x3d3806a5	0.04492821
119	0x3c3ae848	0.011407919
120	0xbdc9a3fe	-0.09845732
121	0xbe028e45	-0.12749584
122	0xbd35a811	-0.044349734
123	0xbe643085	-0.22284134
124	0xbec6f64c	-0.38859785
125	0x3e10ca7e	0.14139745
126	0xbdaf2ccf	-0.085534684
127	0xbd0238cc	-0.031792447
128	0xbe5883b2	-0.21143988
129	0xbe25171a	-0.16122094
130	0xbd6333e4	-0.05546941
131	0xbcd73f40	-0.026275277
132	0x3b720d0e	0.003693405
133	0xbdf79414	-0.120887905
134	0xbd24e7be	-0.04026007
135	0x3d3008ae	0.042977028
136	0xbda55a3d	-0.08073852
137	0x3d09e942	0.033669718
138	0xbdd4308c	-0.10360822
139	0xbe000396	-0.12501368
140	0x3ccf1932	0.025280569
141	0xbb7f4af8	-0.0038954597
142	0x3e3059dc	0.17221779
143	0xbea05f5a	-0.31322747
144	0x3e593b6f	0.21214078
145	0x3d5df31d	0.05418693
146	0xbd171c45	-0.036892194
147	0xbcda25a5	-0.026629278
148	0xbd3b2a34	-0.045694545
149	0xbe1738cf	-0.14767765
150	0xbe8c6082	-0.2741738
151	0x3de000e2	0.109376684
152	0xbd5dfdb6	-0.054197036
153	0x3d9e277c	0.07722375
154	0xbe10ddc4	-0.14147097
155	0xbdd0ac5c	-0.10189125
156	0xbd45c639	-0.048284743
157	0xbe63f306	-0.22260675
158	0xbe75870f	-0.23977302
159	0xbdf72a96	-0.120686695

weight_ih_l1 f4 [160, 40]
0	0x3e0f22d2	0.13978127
1	0x3e240ed9	0.16021289
2	0xbdfcb09c	-0.12338373
3	0xbc709e90	-0.014686242
4	0x3d7a0d13	0.061047625
5	0x3d1962a5	0.03744759
6	0xbe50b4db	-0.20381491
7	0x3d5ec92a	0.054391064
8	0x3e16b59a	0.14717713
9	0x3d878ed0	0.06619036
10	0x3e0bbe54	0.13646823
11	0x3d0a6dec	0.033796236
12	0x3cbafee7	0.022826625
13	0xbdabdfd1	-0.08392299
14	0xbccc2d3e	-0.024923917
15	0x3e51c200	0.20484161
16	0xbe6f8c48	-0.23393357
17	0x3e2689c8	0.16263497
18	0x3dca9c57	0.09893101
19	0xbcadca70	-0.021214694
20	0xbd52766e	-0.051382475
21	0x3d35dda2	0.04440082
22	0x3e2aac29	0.16667236
23	0xbd82f321	-0.063940294
24	0xbdc3b1f2	-0.09555425
25	0xbe1a9322	-0.15095189
26	0x3e49c20a	0.19702926
27	0xbb1485d6	-0.002266278
28	0xbe29612e	-0.16540977
29	0xbde57e17	-0.1120569
30	0xbdb1689c	-0.08662531
31	0x3de41c63	0.11138227
32	0xbcbfe46b	-0.023424348
33	0xbe18dc99	-0.14927901
34	0xbd89dc8f	-0.06731521
35	0x3cd435f0	0.025904626
36	0xbb6f9b7c	-0.0036561182
37	0x3da0a90f	0.07844745
38	0xbd774b4b	-0.06037454
39	0xbdb24245	-0.08704046
40	0x3e0ab881	0.13546945
41	0x3e3b3a15	0.18283875
42	0x3ded5dad	0.11590133
43	0xbdea4eba	-0.11440797
44	0x3cc6258e	0.02418783
45	0xbdcf89e2	-0.10133721
46	0xbe3407c1	-0.17581083
47	0xbdbd8ff1	-0.0925597
48	0x3dd83c2a	0.105583504
49	0xbde73d23	-0.11290958
50	0x3e01532e	0.12629387
51	0x3e24ace0	0.16081572
52	0xbe016a60	-0.12638235
53	0xbe240442	-0.16017249
54	0xbc7b1e96	-0.0153271165
55	0x3d4a74b0	0.049427688
56	0xbe049176	-0.12946114
57	0x3e28b147	0.16473876
58	0x3e0d437d	0.13795276
59	0x3d4c5262	0.049883254
60	0xbc4370be	-0.011928735
61	0xbda7ad10	-0.08187306
62	0x3e39ff17	0.18163715
63	0x3e19dd86	0.1502591
64	0xbe7401ea	-0.23828855
65	0x3d873167	0.066012196
66	0x3d91edc8	0.07125431
67	0xbc9968c1	-0.018726708
68	0x3d7d1fb0	0.061797798
69	0xbd365a29	-0.044519577
70	0xbda22c74	-0.07918635
71	0x3de2a7ba	0.110671476
72	0x3ddb1a95	0.106984295
73	0x3c6c0613	0.014405745
74	0x3c5d9161	0.013523431
75	0x3de4a612	0.11164488
76	0x3d37ff2d	0.04492109
77	0x3d0b35ab	0.03398673
78	0x3df87941	0.12132502
79	0xbdbda69c	-0.09260294
80	0x3e6e9c3a	0.23301783
81	0x3daaa35d	0.0833194
82	0x3e1def46	0.15423307
83	0xbdcfa2dd	-0.101384856
84	0xbd54b738	-0.051932544
85	0x3e3befc8	0.18353188
86	0xbcddf8be	-0.027096149
87	0x3e1c8341	0.15284444
88	0x3c6af349	0.01434023
89	0xbc0794a9	-0.008275189
90	0x3e51f8a3	0.20505004
91	0xba6c0696	-0.0009003667
92	0x3e22b898	0.1589073
93	0xbdfc3e0e	-0.123165235
94	0x3e4c3beb	0.19944732
95	0x3d620b10	0.05518633
96	0xbe3da390	-0.18519425
97	0x3e048a1e	0.12943313
98	0x3d7da07c	0.061920628
99	0x3d93ecc8	0.07222897
100	0xbdfc5bfa	-0.12322231
101	0xbe2608ff	-0.16214369
102	0x3dcbc5a1	0.09949804
103	0xbd4a0001	-0.04931641
104	0xbe396137	-0.18103491
105	0x3c2b092f	0.010439201
106	0x3e3f422f	0.18677591
107	0xbe14ea42	-0.14542487
108	0xbe3694b1	-0.17830159
109	0x3dbd28f8	0.0923633
110	0x3e6e81df	0.2329173
111	0xbd65a757	-0.05606779
112	0x3dadf49d	0.08493922
113	0xbde6f8cb	-0.11277922
114	0xbd4d70a7	-0.05015626
115	0x3d44b45a	0.04802356
116	0xbca28152	-0.019837055
117	0x3e044aac	0.1291911
118	0xbdad3f80	-0.08459377
119	0x3d53f0ee	0.05174344
120	0xbbcf1720	-0.0063198954
121	0x3cd37796	0.025813859
122	0xbe02f95f	-0.1279044
123	0x3e164c76	0.14677605
124	0x3cfc1af7	0.030774577
125	0x3ce64f85	0.02811409
126	0x3d1247a2	0.035712846
127	0xbb8ee620	-0.004360929
128	0x3dc1b10c	0.09457597
129	0x3d039fb3	0.032134723
130	0x3bfcfe25	0.007720726
131	0x3e2f6a38	0.17130363
132	0x3cbd81c7	0.023133172
133	0xbc494d19	-0.012286448
134	0x3d1f7c1f	0.03893673
135	0x3e3b053a	0.18263713
136	0xbd03c9a7	-0.032174733
137	0x3d089852	0.03334839
138	0x3db75f50	0.08953726
139	0xbca55215	-0.020180741
140	0x3db95fb5	0.09051458
141	0xbd9130bf	-0.07089376
142	0xbd87a1de	-0.066226706
143	0xbe125652	-0.14290741
144	0x3b6eb43c	0.0036423346
145	0xbcde3308	-0.027123943
146	0x3df278d2	0.11839451
147	0x3e1a856c	0.15089959
148	0x3e08c9c4	0.13358217
149	0xbdc3e1cd	-0.095645525
150	0x3e532c44	0.20622355
151	0x3e2af86e	0.16696331
152	0x3e0708ea	0.13186994
153	0xbe2f4b38	-0.17118537
154	0x3e3467b6	0.17617688
155	0xbda68b17	-0.08131998
156	0x3c96b467	0.01839657
157	0x3db2f10a	0.08737381
158	0x3df631bc	0.12021205
159	0xbe109901	-0.14120866
160	0xbe4a015f	-0.19727086
161	0x3dbcf67c	0.09226701
162	0xbdbec3eb	-0.09314712
163	0xbdda31ad	-0.10654006
164	0x3d86328d	0.065526105
165	0x3be3513f	0.0069371755
166	0xbda0277a	-0.078200296
167	0x3d4a65b8	0.049413413
168	0x3e84d833	0.25946197
169	0xbd97285a	-0.07380743
170	0xbcf12ba6	-0.029439759
171	0xbe1def79	-0.15423383
172	0x3e145cb5	0.1448849
173	0x3d87d117	0.066316776
174	0xbe784bae	-0.2424762
175	0xbe1e588a	-0.15463462
176	0x3cccbcbb	0.024992337
177	0xbe4d9f36	-0.20080265
178	0x3e335c7d	0.1751575
179	0xbda1aef0	-0.07894695
180	0x3ca8fa95	0.0206273
181	0xbd99ae66	-0.07503967
182	0x3d6988ac	0.057015106
183	0xbdbaa8ef	-0.09114253
184	0x3e51c660	0.2048583
185	0xbd1a624a	-0.037691392
186	0xbda8a02a	-0.08233674
187	0xbe00ed72	-0.12590578
188	0xbda7dd59	-0.081965156
189	0x3ddac40d	0.10681925
190	0xbe1c73eb	-0.15278594
191	0xbe1fbf1c	-0.15600246
192	0xbe18bd2c	-0.14915913
193	0x3dad0856	0.084488556
194	0xbda8fd76	-0.08251469
195	0x3e19ee90	0.1503241
196	0xbe255124	-0.16144234
197	0xbdb5c4ac	-0.08875403
198	0x3d6075e1	0.054799918
199	0x3d0760f4	0.033051446
200	0xbceb9c2e	-0.028760996
201	0xbc316e31	-0.010829494
202	0x3e008b11	0.1255305
203	0x3de8750e	0.113504514
204	0xbe0da157	-0.13831078
205	0x3d1b925e	0.037981384
206	0xbdbcbdb4	-0.092158705
207	0x3caba662	0.020953361
208	0xbd164747	-0.03668907
209	0xbe169afd	-0.14707561
210	0xbd7cc47b	-0.061710816
211	0x3e44f7ea	0.19235197
212	0x3e4ab073	0.19793873
213	0xbda1980f	-0.07890331
214	0x3e90cf50	0.28283167
215	0x3a863f8b	0.0010242326
216	0x3e11c290	0.14234376
217	0xba221b1c	-0.0006183849
218	0xbd50b9dc	-0.0509585
219	0x3da3ffb8	0.08007759
220	0x3e09a982	0.13443568
221	0xbe0d6ce4	-0.1381107
222	0xbbb6e889	-0.0055819196
223	0xbdfac6b2	-0.122449294
224	0xbe6b7b16	-0.22996172
225	0x3c4db52b	0.012555401
226	0x3e61f304	0.2206536
227	0x3cdcf419	0.026971864
228	0xbda35c7b	-0.079766236
229	0xbded3c55	-0.11583773
230	0x3e06202b	0.13098209
231	0xbd4c833c	-0.049929842
232	0x3d6b2425	0.057407517
233	0xbe93a637	-0.2883775
234	0x3c35c93e	0.011095343
235	0x3cf387a1	0.029727759
236	0xbe1a1c89	-0.15049948
237	0x3db13350	0.08652365
238	0x3e2b1fb4	0.16711313
239	0x3ddd3c80	0.10802555
240	0x3dd1204a	0.10211237
241	0x3c8ea3e9	0.017412143
242	0x3e035718	0.12826192
243	0x3d870e46	0.06594519
244	0xbd91aa7d	-0.07112596
245	0x3ccdb019	0.025108384
246	0xbd1df9a4	-0.038568154
247	0x3cfd55da	0.030924726
248	0xbd797a31	-0.060907546
249	0x3da98755	0.08277766
250	0x3e50cc41	0.20390417
251	0x3e9988c6	0.29987162
252	0x3e5ec54d	0.21754952
253	0x3d2913bb	0.041278582
254	0x3d439f3d	0.047759283
255	0x3e58c613	0.2116931

weight_hh_l1 f4 [160, 40]
0	0xbcb9c4db	-0.022676876
1	0x3cf3c959	0.029759096
2	0xbd97b3eb	-0.074073635
3	0xbd214e1d	-0.039381135
4	0x3d940547	0.07227569
5	0x3e543fa3	0.207274
6	0x3e09a3f5	0.13441451
7	0xbd8911c8	-0.06692845
8	0x3e466d2b	0.19377582
9	0x3e12b87b	0.14328186
10	0x3e03aa76	0.12857994
11	0x3d2cf3fa	0.04222486
12	0xbd686773	-0.056739282
13	0x3db316bf	0.08744573
14	0x3e695054	0.22784549
15	0xbd8ab10e	-0.06772052
16	0x3e08cb77	0.13358866
17	0xbd997208	-0.07492453
18	0xbdddb3b9	-0.10825295
19	0xbd2dee8e	-0.04246383
20	0x3b4369a6	0.002981761
21	0x3e4d9126	0.20074901
22	0x3d9f2896	0.07771413
23	0x3d2e7b28	0.04259792
24	0xbda4e232	-0.08050956
25	0xbc1c4e8d	-0.009540212
26	0x3d6ea9d6	0.058267437
27	0x3c1fd960	0.009756416
28	0xbddc10f4	-0.10745421
29	0xbe10c75c	-0.1413855
30	0x3e1e1a10	0.1543963
31	0x3dd12e87	0.102139525
32	0xbe15c4c1	-0.14625837
33	0x3e4dc3f0	0.20094275
34	0x3c8e0fc2	0.017341498
35	0x3d941af0	0.072317004
36	0xbd3b7f69	-0.045775805
37	0xbddab80f	-0.10679638
38	0x3e1d5ff5	0.15368636
39	0x3d77325c	0.06035076
40	0x3e1480a6	0.145022
41	0x3e02e298	0.12781751
42	0x3d50503a	0.05085776
43	0xbe47a3f4	-0.19496137
44	0x3df49054	0.11941591
45	0x3df0a5be	0.11750363
46	0x3de5fa4f	0.11229383
47	0x3c7ea00d	0.015541089
48	0x3e4d63c0	0.20057583
49	0xbca40f06	-0.020026695
50	0x3ddb7cdf	0.10717177
51	0xbe865c40	-0.26242256
52	0x3d768901	0.06018925
53	0x3d6bb284	0.057543293
54	0x3da770d3	0.081758164
55	0xbe10822b	-0.14112155
56	0x3d72373d	0.05913471
57	0x3df2bb1b	0.11852094
58	0xbdf25106	-0.1183186
59	0x3cd26bd1	0.025686176
60	0xbd169960	-0.036767364
61	0xbc49ea5b	-0.012323941
62	0xbd0bb4f5	-0.03410812
63	0xbde72e5a	-0.11288138
64	0x3e1f537c	0.1555919
65	0xbe2a531e	-0.16633269
66	0xbe2250a3	-0.15851073
67	0xbc8ee240	-0.017441869
68	0x3e17429c	0.14771503
69	0x3d99ef15	0.075163044
70	0xbe419ba5	-0.1890703
71	0x3cf3d1be	0.029763099
72	0xbdcb2859	-0.09919805
73	0xbc4fb9f9	-0.012678617
74	0xbe080728	-0.1328398
75	0x3d8c0752	0.06837334
76	0xbdcc2abc	-0.099690884
77	0x3dd48b25	0.10378102
78	0x3d5a1048	0.053238183
79	0xbe25cb0a	-0.16190735
80	0xbdfb9763	-0.12284734
81	0x3d12a75e	0.035804145
82	0x3d569c40	0.052395105
83	0xbdcbf630	-0.09959066
84	0x3da72130	0.08160627
85	0xbe640dfd	-0.22270961
86	0x3cb584d1	0.022158058
87	0xbd9e8303	-0.07739832
88	0x3d0a8f5d	0.033828128
89	0x3be07b54	0.0068506394
90	0xbb33aa1e	-0.002741463
91	0xbc9f0f0b	-0.019416353
92	0xbe242947	-0.16031371
93	0xbdee05d7	-0.116222076
94	0x3dec2d89	0.11532123
95	0x3dfb4280	0.12268543
96	0x3c9db6ed	0.019252265
97	0x3d482f52	0.048873253
98	0x3e338816	0.17532381
99	0x3d872f82	0.06600858
100	0xbdb102c2	-0.08643104
101	0xbe5169c1	-0.20450498
102	0x3dd5e486	0.10443978
103	0x3c3ad177	0.011402479
104	0xbc375ee2	-0.011192055
105	0xbe2707ba	-0.16311541
106	0x3da95519	0.08268184
107	0x3e3816f6	0.17977509
108	0xbe0a31c9	-0.13495554
109	0xbdbc5ea1	-0.091977365
110	0xbd2286d4	-0.039679363
111	0xbc6b9e9f	-0.01438108
112	0xbe30b164	-0.17255169
113	0x3a95085e	0.0011370291
114	0xbb148fdd	-0.0022668757
115	0x3e08b52f	0.13350366
116	0xbd593ba9	-0.053035412
117	0xbe50d3b3	-0.20393257
118	0x3cf26640	0.029589772
119	0xbd841c52	-0.06450714
120	0xbd555929	-0.052086983
121	0xbe003d83	-0.12523465
122	0xbe12d53d	-0.14339156
123	0xbd9b19ef	-0.07573306
124	0xbdf00acc	-0.11720809
125	0x3d4846a2	0.048895486
126	0x3cc805e3	0.02441687
127	0xbde13ec2	-0.10998298
128	0xbca83d10	-0.02053693
129	0xbdc30e09	-0.09524161
130	0x3c13c42d	0.00901894
131	0xbdca2b2e	-0.09871517
132	0x3e429f1b	0.19006006
133	0xbdc9d91f	-0.09855866
134	0x3c44dcc4	0.012015525
135	0xbdabf9aa	-0.08397229
136	0x3d588191	0.05285794
137	0x3e14c8f8	0.14529788
138	0x3e2d1dff	0.16905974
139	0x3da087f9	0.07838435
140	0xbe0eee2c	-0.13958043
141	0x3bff0a41	0.007783205
142	0xbda0dffb	-0.07855221
143	0xbd89abdf	-0.06722235
144	0xbd97140f	-0.07376873
145	0x3dd8690e	0.105669126
146	0xbd7b4d4e	-0.06135302
147	0x3e23100f	0.15924095
148	0x3da3f04b	0.080048166
149	0x3d8f2808	0.06990057
150	0xbdd022fb	-0.10162922
151	0xbc0445a2	-0.008073242
152	0xbd380b68	-0.044932753
153	0x3d1a7b16	0.03771504
154	0x3c0a0d61	0.008426041
155	0x3da7a902	0.081865326
156	0xbd945f35	-0.07244722
157	0xbd8b9c46	-0.06816916
158	0x3e712e8c	0.23552912
159	0x3e036a44	0.12833506
160	0xbd99c41c	-0.07508108
161	0x3e9c2087	0.30493566
162	0x3dcec7a8	0.10096675
163	0x3d08d5d9	0.033407066
164	0x3d38c750	0.045111954
165	0xbde2fe50	-0.110836625
166	0x3e7ff0ff	0.24994276
167	0x3d2fd99e	0.042932145
168	0xbc5af90a	-0.01336504
169	0x3e1fbbd1	0.1559899
170	0xbe31a800	-0.17349243
171	0xbd90ea6f	-0.07075965
172	0x3ce82cfb	0.02834176
173	0xbab8ef50	-0.0014109407
174	0xbe3995d8	-0.18123567
175	0xbe2a34b2	-0.16621664
176	0xbe1ca408	-0.15296948
177	0xbe8b55ef	-0.27214
178	0xbce58081	-0.028015377
179	0x3e8668c9	0.2625182
180	0xbdc24afb	-0.09486958
181	0x3de8bf99	0.11364669
182	0xbe9225a7	-0.2854435
183	0xbe3b2b17	-0.18278156
184	0x3e74a4b7	0.23890959
185	0xbce9440e	-0.028474834
186	0x3dee7af5	0.11644546
187	0x3c02e797	0.007989786
188	0x3e791e53	0.24327974
189	0xbe37bb5b	-0.17942564
190	0xbe83f785	-0.2577478
191	0xbcf4540e	-0.029825237
192	0x3c7e031d	0.015503672
193	0x3c738aa0	0.014864594
194	0x3e499fb9	0.19689836
195	0xbe2c3b6c	-0.16819543
196	0xbda30186	-0.07959275
197	0x3e8364f3	0.25662956
198	0x3e7acabf	0.24491404
199	0x3d694461	0.056949977
200	0x3e0b0234	0.13575059
201	0xbd702884	-0.05863239
202	0x3cbe3f09	0.023223417
203	0xbdf0c127	-0.11755591
204	0xbd7467fa	-0.059669472
205	0xbde9c1de	-0.1141393
206	0xbdc5bd1a	-0.09655209
207	0x3d2575ec	0.040395662
208	0xbe0ad575	-0.1355799
209	0xbd23650e	-0.039891295
210	0x3e388614	0.18019897
211	0x3e3d101e	0.1846318
212	0xbd3d8c7b	-0.04627655
213	0x3e1c17ed	0.15243502
214	0x3e07c295	0.13257821
215	0x3e15a2fb	0.14612953
216	0x3d4f199c	0.050561532
217	0x3dbe0aab	0.092793785
218	0x3df84e8a	0.12124355
219	0x3d28d797	0.041221227
220	0x3d813bbf	0.06310224
221	0x3db15430	0.086586356
222	0xbdc03167	-0.09384423
223	0x3d45be1a	0.048276998
224	0xbe4423ed	-0.1915433
225	0xbd196daf	-0.037458118
226	0x3e0e7723	0.13912635
227	0x3e1d776b	0.15377586
228	0xbdfb46f1	-0.122693904
229	0xbe14ec5f	-0.14543293
230	0xbe3d6a61	-0.18497612
231	0xbd751dd9	-0.059842918
232	0x3cfcc3e8	0.030855134
233	0xba6820a8	-0.0008854964
234	0xbdceb1c0	-0.10092497
235	0x3e36ac9e	0.17839286
236	0x3d871433	0.065956496
237	0x3d4be865	0.049782176
238	0x3d02bb7b	0.031917077
239	0x3b098547	0.002098398
240	0x3c538a57	0.012911401
241	0xbdb3dcef	-0.08782374
242	0x3caa746a	0.020807464
243	0xbe3ad178	-0.18243968
244	0x3de03ec4	0.109494716
245	0x3de0d20f	0.109775655
246	0xbb0b9840	-0.0021300465
247	0x3e24d869	0.16098179
248	0x3d9d0452	0.0766684
249	0xbe24bc57	-0.16087471
250	0xbc46f80c	-0.0121441
251	0xbd26ae56	-0.040693603
252	0xbd80dd30	-0.06292188
253	0x3d47dba2	0.048793443
254	0x3c2248ec	0.009905081
255	0x3d92e513	0.07172599

bias_ih_l1 f4 [160]
0	0x3e440ed4	0.19146281
1	0xbe07b5d3	-0.13252954
2	0xbe334854	-0.1750806
3	0x3e07894d	0.1323597
4	0x3c148abe	0.009066282
5	0xbe6fefe0	-0.23431349
6	0xbdf77934	-0.120836645
7	0xbe66cb76	-0.22538552
8	0x3cc5c236	0.024140459
9	0x3e406ca2	0.1879144
10	0xbe1a4809	-0.15066542
11	0xbe2a90a9	-0.16656746
12	0xbccaa943	-0.024738913
13	0xbe224c84	-0.15849501
14	0xbd9bdf01	-0.07610894
15	0x3c375807	0.011190421
16	0xbe32f5ef	-0.17476629
17	0xbe0817c9	-0.13290323
18	0x3d9635f7	0.07334512
19	0xbc8d30af	-0.017235128
20	0xbd0d7daa	-0.03454367
21	0x3e038ed9	0.12847461
22	0xbc2989df	-0.010347812
23	0xbe07f397	-0.13276516
24	0x3da682b3	0.08130398
25	0xbe22ec6a	-0.15910497
26	0xbda600ac	-0.08105597
27	0xbe2a9821	-0.16659595
28	0x3ddfcd02	0.10927774
29	0xbe0ef41e	-0.13960311
30	0xbe551d30	-0.20811915
31	0x3c8509e8	0.016240075
32	0xbe0138c5	-0.12619312
33	0x3d3cd5eb	0.046102446
34	0xbe44e488	-0.19227803
35	0xbd8470cf	-0.06466829
36	0xbe080d7f	-0.13286398
37	0xbe2e4c50	-0.17021298
38	0xbe19c590	-0.1501677
39	0xbe8cec63	-0.275241
40	0x3dfa1496	0.12210958
41	0x3e388613	0.18019895
42	0x3c926b63	0.017873472
43	0xbd5b475f	-0.05353486
44	0xbe15a2e3	-0.14612918
45	0xbddf3902	-0.10899545
46	0x3de1802a	0.110107735
47	0xbe56bb03	-0.20969777
48	0xbdea045f	-0.11426615
49	0xbc7c20e7	-0.015388704
50	0x3bede70e	0.00726021
51	0x3da89057	0.08230656
52	0xbc825542	-0.015909795
53	0x3d412e73	0.047163438
54	0xbe3c7d9f	-0.18407296
55	0xbceacc78	-0.028661951
56	0x3e0b3e21	0.13597919
57	0x3dd961e6	0.10614376
58	0xbe0e5641	-0.13900091
59	0x3d93802a	0.0720218
60	0xbe136639	-0.14394464
61	0xbd0ad1fc	-0.033891663
62	0x3d9b8081	0.075928695
63	0x3db4778d	0.08811865
64	0x3d82f8f9	0.06395144
65	0xbdbddccf	-0.092706315
66	0x3e068729	0.13137497
67	0xbe1f399a	-0.15549317
68	0x3e36c060	0.17846823
69	0x3e523dd7	0.20531403
70	0xbe3e72de	-0.18598506
71	0xbe2f8927	-0.17142163
72	0x3c621818	0.01379969
73	0x3ca9e615	0.020739594
74	0xbd914d36	-0.07094805
75	0xbdfbea91	-0.12300599
76	0xbc0b1054	-0.00848778
77	0x3dc472ca	0.09592207
78	0x3bd2b67c	0.0064304452
79	0xbe0cc40b	-0.1374666
80	0xbdf1613c	-0.11786124
81	0x3d25d294	0.040484026
82	0xbdcfbddc	-0.10143635
83	0xbdb6b4bb	-0.0892119
84	0x3d5ca8c4	0.053871885
85	0x3e063ae2	0.131084
86	0xbd837cf6	-0.06420319
87	0xbc4edef9	-0.012626403
88	0xbcc4a79c	-0.024005704
89	0x3dd6db5e	0.1049106
90	0xbc32c26d	-0.0109106125
91	0x3aa76acc	0.0012772917
92	0x3d8fd144	0.07022336
93	0x3d37750a	0.04478935
94	0x3dda7783	0.10667326
95	0xbda46725	-0.08027486
96	0x3d7a504e	0.06111174
97	0xbdf2bff2	-0.11853017
98	0xbe203a76	-0.15647301
99	0xbc72c57b	-0.014817591
100	0x3e09dcb6	0.13463101
101	0x3d490fce	0.04908734
102	0xbc3edfc3	-0.011650029
103	0x3cb655ce	0.022257712
104	0x3bc02cda	0.0058647217
105	0xbd3c2578	-0.04593417
106	0xbddbb3e3	-0.1072767
107	0x3cf82633	0.030291652
108	0xbd51f2e6	-0.051257037
109	0x3dec9e07	0.11553579
110	0x3de5c195	0.112185635
111	0x3d908ee4	0.07058504
112	0xbd956d3b	-0.07296225
113	0x3d9bd0fe	0.076082215
114	0xbc4855da	-0.0122275
115	0x3e0dad23	0.13835578
116	0x3dc36d49	0.09542329
117	0xbd5acac4	-0.05341603
118	0xbbc8e3ce	-0.006130672
119	0xbc50d98d	-0.012747181
120	0x3d95e463	0.07318952
121	0xbdca3cfa	-0.098749116
122	0xbe616a85	-0.2201329
123	0x3ddd61d4	0.10809675
124	0xbe1b21ad	-0.15149565
125	0xbdca838e	-0.09888373
126	0xbdb34bef	-0.087547176
127	0xbe322330	-0.17396235
128	0xbe200d99	-0.15630187
129	0xbd4a76fd	-0.049429882
130	0x3e222d0c	0.15837497
131	0x3db07e85	0.08617882
132	0xbdf00903	-0.11720469
133	0xbc4dc214	-0.012558479
134	0xbe4a15cb	-0.19734876
135	0x3dba4538	0.09095234
136	0x3c539180	0.012913108
137	0x3d9cce2d	0.076565124
138	0xbd2f0883	-0.042732727
139	0x3d5c4ba9	0.053783093
140	0xbddd0fda	-0.10794039
141	0x3df9e01e	0.1220095
142	0x3debb9aa	0.11510022
143	0x3d087fbc	0.033324942
144	0x3d906f49	0.07052476
145	0xbe426023	-0.18981986
146	0x3d1883bc	0.037235007
147	0x3cc08077	0.023498757
148	0x3e3d0cf5	0.18461974
149	0xbd9e1407	-0.07718664
150	0xbe88be01	-0.2670746
151	0xbe5ffa6e	-0.21872875
152	0xbcdb751d	-0.026789242
153	0x391016a0	0.00013741339
154	0xbe810455	-0.25198618
155	0xbe1591bd	-0.14606376
156	0xbe01dab2	-0.12681082
157	0x3e13627a	0.14393035
158	0xbbd10f19	-0.0063799736
159	0xbe1fe299	-0.15613784

bias_hh_l1 f4 [160]
0	0x3bb2e6e9	0.0054596555
1	0x3ded60f8	0.11590761
2	0xbdf84f74	-0.121245295
3	0xbdfd0b2f	-0.12355649
4	0xbd65253d	-0.055943716
5	0xbe717814	-0.23580962
6	0xbe482b13	-0.19547682
7	0xbe12a1a8	-0.1431948
8	0x3e0f8228	0.14014494
9	0xbdf2b6dc	-0.11851284
10	0xbdd4097f	-0.10353374
11	0xbd11deb9	-0.035612796
12	0xbcad5cfb	-0.0211625
13	0x3d8e3d91	0.069453366
14	0x3cc3dfbd	0.023910398
15	0xbcc3b16a	-0.023888309
16	0xbe0ba01e	-0.13635299
17	0xbca6b17d	-0.020348305
18	0x3d061928	0.032738835
19	0xbd45cbdb	-0.048290115
20	0xbe03cc39	-0.12870874
21	0x3dd3d8d6	0.103440925
22	0x3d656d21	0.056012277
23	0x3dd54562	0.10413624
24	0x3cd5924b	0.026070734
25	0xbda22058	-0.07916325
26	0xbddec872	-0.10878076
27	0xbdfe8c80	-0.12429142
28	0x3dd9f388	0.10642153
29	0xbe04fd64	-0.12987286
30	0xbd960293	-0.0732471
31	0xbde3504d	-0.110993005
32	0xbe163411	-0.146683
33	0x3de2e32e	0.11078487
34	0x3c363267	0.011120415
35	0xbe254530	-0.16139674
36	0xbe563753	-0.20919542
37	0xbdad298b	-0.08455189
38	0xbd8882fc	-0.06665608
39	0xbe858af9	-0.2608259
40	0x3d386f4f	0.045028027
41	0x3e79d587	0.2439786
42	0x3e09b4ad	0.13447829
43	0x3e04b3f0	0.12959266
44	0x3c2779ff	0.010221957
45	0x3d88ece1	0.06685806
46	0x3e0c8901	0.13724138
47	0xbe10a7e9	-0.14126553
48	0xbe3e82a2	-0.1860452
49	0x3e123c10	0.14280725
50	0x3df99db5	0.12188283
51	0xbd24118a	-0.04005579
52	0x3e315b31	0.17319943
53	0xbe204278	-0.15650356
54	0xbe2edb89	-0.17075934
55	0x3c21cacf	0.0098750135
56	0xbcc9c9cd	-0.024632359
57	0xbdf158bc	-0.11784503
58	0xbdeeaa74	-0.11653605
59	0xbdcf58ca	-0.10124357
60	0xbe2cd399	-0.16877593
61	0x3ccbc4fa	0.0248742
62	0x3cbc1947	0.022961272
63	0x3e43f5ee	0.19136783
64	0x3dfaf3a4	0.12253502
65	0x3dd0be20	0.101925135
66	0xbd828f2b	-0.063749634
67	0xbd476c79	-0.048687432
68	0x3da25d31	0.07927931
69	0xbd27084c	-0.040779397
70	0xbe78b861	-0.24289085
71	0xbe2e9339	-0.17048348
72	0x3deba043	0.11505177
73	0xbbc42b6f	-0.005986623
74	0xbe0cea11	-0.13761164
75	0xbe0fc9ca	-0.1404182
76	0x3b7bca46	0.0038420125
77	0x3e60bc97	0.21946941
78	0xbd79edbc	-0.061017737
79	0xbc35af44	-0.01108915
80	0x3e05c522	0.13063481
81	0xbd86ad14	-0.06575981
82	0x3decce80	0.11562824
83	0x3c7bc723	0.015367302
84	0xbe0407f2	-0.12893656
85	0x3def19ce	0.11674844
86	0x3cf6822a	0.030091364
87	0xbd700b8c	-0.058604762
88	0x3c8db3c4	0.017297633
89	0x3e251b98	0.16123807
90	0xbd64fd62	-0.055905707
91	0x3d25f50a	0.04051689
92	0xbdb86002	-0.09002687
93	0x3d056cb2	0.032574363
94	0x3d68b230	0.056810558
95	0x3d98e871	0.0746621
96	0x3dc1900e	0.094513044
97	0x3daede62	0.0853851
98	0x3de65ebb	0.11248537
99	0xbd24c7c5	-0.040229578
100	0xbda5d823	-0.080978654
101	0x3c987d3e	0.018614408
102	0x3e02de34	0.12780076
103	0x3d87630d	0.06610689
104	0x3e00fbbd	0.1259603
105	0x3d5fb13c	0.054612383
106	0xbd901e49	-0.070370264
107	0xbe11842a	-0.14210573
108	0xbc8a360a	-0.016871471
109	0x3d66e167	0.056367304
110	0x3d883e69	0.06652529
111	0x3da4f170	0.08053863
112	0x3ddb0eaf	0.1069616
113	0x3d8db92c	0.06920084
114	0xbd8fc08e	-0.07019149
115	0xbdd2763d	-0.102764584
116	0xbcca9638	-0.024729833
117	0xbb60e0d2	-0.003431369
118	0x3dccd66e	0.10001837
119	0xbc543e6f	-0.012954338
120	0x3e12ed87	0.14348422
121	0x3e37b1c8	0.17938912
122	0xbe0dd63d	-0.13851257
123	0x3df364b4	0.11884442
124	0x3d810ce8	0.0630129
125	0xbe6082ca	-0.21924892
126	0xbdc94c23	-0.09828975
127	0xbcb7aa7e	-0.022420164
128	0x3df6b84e	0.12046872
129	0xbd6c2836	-0.057655536
130	0x3d00ec82	0.03147555
131	0xbd98e74d	-0.07465992
132	0x3dd63939	0.10460133
133	0xbc90076b	-0.017581662
134	0xbdb1daf7	-0.08684342
135	0x3d8fa26d	0.07013402
136	0xbd748fb4	-0.05970736
137	0xbcdfe873	-0.02733252
138	0x3c0a85d8	0.008454762
139	0x3d73b5c8	0.059499532
140	0xbd1d1e1d	-0.038358796
141	0xbe0bec01	-0.13664247
142	0xbcd66df6	-0.02617548
143	0x3db434e0	0.087991476
144	0xbd1fa5de	-0.038976543
145	0xbd953d2e	-0.0728706
146	0x3dcd9bfa	0.10039516
147	0xbe68b214	-0.22724181
148	0x3daad3c5	0.08341173
149	0xbd8b66b6	-0.068067
150	0xbe817317	-0.2528312
151	0xbe54126e	-0.20710155
152	0xbdcf3260	-0.1011703
153	0xbe2aaa88	-0.16666615
154	0xbcb94793	-0.022617137
155	0x3d899660	0.06718135
156	0x3cd09389	0.025460975
157	0x3b346449	0.0027525595
158	0xbe1ac8cc	-0.1511566
159	0x3b85d4aa	0.0040841894

weight_ih_l2 f4 [160, 40]
0	0x3ccea077	0.025223
1	0x3d390f87	0.045180824
2	0x3db08c37	0.08620494
3	0x3dc5cdcc	0.09658393
4	0xbb7f3964	-0.003894412
5	0xbe3539ba	-0.17697802
6	0x3dedc1d5	0.11609236
7	0xbe3bbee0	-0.18334532
8	0xbdb6fe1b	-0.089351855
9	0x3d383f34	0.04498215
10	0xbda4c2dc	-0.08044979
11	0xbd4effe7	-0.050537016
12	0xbc7a2c43	-0.015269342
13	0xbd2e85f8	-0.04260823
14	0xbd69d478	-0.05708739
15	0xbd9aa2dd	-0.07550595
16	0x3c0ce89e	0.008600382
17	0x3e02888c	0.12747401
18	0xbe127f7b	-0.14306442
19	0x3d7496d4	0.059714153
20	0xbe6825ef	-0.2267072
21	0x3c9c4195	0.01907424
22	0xbe022db0	-0.12712741
23	0xbe2e7773	-0.17037754
24	0xbe0cae71	-0.13738419
25	0x3df6a6f9	0.12043566
26	0xbd92cfb9	-0.07168526
27	0x3cca1cde	0.024671968
28	0x3d62f9fa	0.055414177
29	0xbd91f8f8	-0.07127565
30	0xbe801dbf	-0.25022694
31	0xbe21b76c	-0.15792626
32	0xbe1c5924	-0.1526838
33	0xbdd93b39	-0.10606999
34	0xbdc2ef7b	-0.095183335
35	0xbdb44fc1	-0.08804274
36	0xbcdd28c2	-0.026996974
37	0x3ded222f	0.11578786
38	0xbd9b9cfc	-0.07598302
39	0x3c061df4	0.008185852
40	0xbd008384	-0.031375423
41	0x3d5bcdb4	0.05366297
42	0xbcd80726	-0.026370596
43	0x3da9d45f	0.0829246
44	0xbdb536af	-0.08848321
45	0x3d1da8f1	0.038491193
46	0xbdc2aa65	-0.095051564
47	0xbc03e1f6	-0.008049479
48	0x3dc821ed	0.09772096
49	0x3d97a4bc	0.074044675
50	0xbd65d7a2	-0.056113847
51	0x3db9b91f	0.09068512
52	0x3d7c4a84	0.0615945
53	0x3def08c9	0.116715975
54	0x3e313890	0.17306733
55	0x3dc3a9ee	0.09553896
56	0xbdf2765f	-0.11838984
57	0x3e318fcd	0.17340012
58	0xbd508b13	-0.05091388
59	0xbdc43624	-0.09580639
60	0xbd24721d	-0.04014789
61	0x3dd50cc8	0.104028285
62	0xbc90ee41	-0.017691733
63	0x3e113a6a	0.1418244
64	0x3d973a7e	0.073842034
65	0xbcbbce2c	-0.022925459
66	0x3e4ee3f6	0.20204148
67	0x3c452e98	0.012035035
68	0xbd86521f	-0.06558632
69	0x3d450637	0.04810163
70	0xbc3c2cdb	-0.011485304
71	0x3b754a76	0.0037428415
72	0x3e48fa7c	0.19626802
73	0xbc9b8de5	-0.018988559
74	0xbde8d6fd	-0.11369131
75	0x3cce8919	0.025211858
76	0xbe0137a3	-0.1261888
77	0xbc23641f	-0.009972601
78	0x3cd4ac18	0.025960967
79	0x3e291a49	0.16513933
80	0x3dfef9c6	0.12449984
81	0xbd18d7d3	-0.0373152
82	0xbd6e5123	-0.058182847
83	0x3d34a1f2	0.044099756
84	0x3dbea05e	0.09307931
85	0xbe6fbd33	-0.23412018
86	0xbda802e7	-0.082036786
87	0x3e119342	0.1421633
88	0xbdd74c7a	-0.105126336
89	0xbe4ac476	-0.19801506
90	0x3e06f255	0.1317838
91	0x3e14dbcd	0.14536972
92	0xbd64e4a3	-0.055882107
93	0x3e0bb6e5	0.13643987
94	0x3da631cd	0.081149675
95	0xbe035027	-0.12823544
96	0x3c7a62ba	0.015282327
97	0xbe4976dd	-0.19674249
98	0xbd0cd7b7	-0.03438541
99	0x3cf83748	0.030299798
100	0x3e463403	0.19355778
101	0xbceb1517	-0.02869658
102	0xbdf6c5d0	-0.120494485
103	0x3d31dee8	0.04342547
104	0xbda4cdfb	-0.080471
105	0xbdad077b	-0.084486924
106	0xbe50f65d	-0.2040648
107	0x3da68033	0.08129921
108	0x3cb58b65	0.022161195
109	0x3d886d97	0.066615276
110	0x3db7a391	0.08966745
111	0xbe6ff76d	-0.23434229
112	0x3db07c74	0.086174875
113	0xbdce7f55	-0.100828804
114	0x3e714e68	0.23565066
115	0xbc2b62a6	-0.010460531
116	0xbca43e67	-0.020049287
117	0x3da65316	0.08121316
118	0xbdfaa6c4	-0.12238839
119	0xbe0d0d41	-0.13774587
120	0xbe5a07b0	-0.21291995
121	0xbde3c93b	-0.11122366
122	0x3d0f0db4	0.034925178
123	0x3c8ba570	0.01704666
124	0x3e250225	0.161141
125	0x3d5b0e71	0.05348057
126	0x3db815e2	0.08988549
127	0xbe31ed44	-0.17375666
128	0xbe25f666	-0.16207275
129	0xbdcffd5c	-0.10155746
130	0xbda1d9f5	-0.079029
131	0x3e3ce435	0.18446429
132	0x3de8b661	0.11362911
133	0x3ddec90d	0.10878191
134	0xbdbc5dfa	-0.09197612
135	0xbe561e23	-0.20909934
136	0xbdb02576	-0.08600895
137	0xbda70a4f	-0.08156263
138	0xbe208587	-0.15675937
139	0x3e205f91	0.15661456
140	0x3d5bcae5	0.053660292
141	0xbe225ed7	-0.15856491
142	0xbcf7fd1e	-0.030272063
143	0xbd64d8db	-0.055870872
144	0xbd208daf	-0.03919762
145	0xbb4020d9	-0.0029316454
146	0xbdd4db4b	-0.10393389
147	0x3d0e337d	0.03471707
148	0x3dab8797	0.08375471
149	0x3e2d9ce0	0.16954374
150	0x3e20b1f0	0.15692878
151	0xbe35ed6b	-0.17766349
152	0x3d8016ea	0.062543705
153	0x3cf6b584	0.03011585
154	0x3db2d58a	0.087321356
155	0xbe050086	-0.12988481
156	0x3daacd6e	0.08339964
157	0x3dc7c1d5	0.097537674
158	0xbe4f49c7	-0.20242988
159	0xbdfbb9c3	-0.122912906
160	0x3e51f7c2	0.20504668
161	0xbddcfb6e	-0.10790144
162	0x3c95ab2c	0.018270098
163	0xbe23c50d	-0.15993138
164	0xbe1f86a1	-0.155787
165	0xbdad5365	-0.08463172
166	0xbe01be0e	-0.12670156
167	0xbe173ea1	-0.14769985
168	0xbccc93e5	-0.024972865
169	0x3c8589cf	0.016301064
170	0x3e4ca417	0.1998447
171	0xbdf1ad60	-0.11800647
172	0xbe3a38d8	-0.18185747
173	0x3e57709d	0.21039052
174	0xbd406c9c	-0.046978578
175	0xbc277319	-0.0102203125
176	0x3e59e0a2	0.21277097
177	0x3e47d0ae	0.19513199
178	0x3e1819cd	0.14853592
179	0xbe2f0480	-0.1709156
180	0x3dabeb68	0.083945096
181	0x3dbf52ec	0.09341988
182	0x3cdcbd1a	0.02694564
183	0x3d806213	0.06268706
184	0x3c1dde71	0.009635554
185	0xbd9c0de0	-0.07619834
186	0x3b341385	0.0027477455
187	0x3e3f96b0	0.18709826
188	0xbe20fd83	-0.15721707
189	0x3dcbd58d	0.09952841
190	0xbde02e47	-0.10946327
191	0xbe0a124c	-0.13483542
192	0x3ddd03dd	0.107917525
193	0xbdafe1be	-0.08587979
194	0xbcf36f49	-0.02971615
195	0x3df0cae3	0.117574476
196	0x3dccb512	0.09995474
197	0xbe13acd4	-0.14421397
198	0x3da04725	0.0782607
199	0xbdc3b295	-0.09555546
200	0xbdac5124	-0.08413914
201	0xbda9cc8f	-0.082909696
202	0x3daf7500	0.08567238
203	0xbddaa50f	-0.10676014
204	0x3e126820	0.14297533
205	0xbdf5440c	-0.119758695
206	0xbdc86b1e	-0.09786056
207	0x3d2cdbbe	0.04220175
208	0xbd1a6aed	-0.03769963
209	0xbd4be0fc	-0.04977511
210	0xbe03f444	-0.12886149
211	0xbe398299	-0.18116225
212	0x3e5691a1	0.2095399
213	0x3dce405d	0.1007087
214	0xbdc66c0d	-0.09688578
215	0xbd618978	-0.05506274
216	0xbcfa100e	-0.030525234
217	0x3d588f7a	0.052871205
218	0x3e0bf47c	0.13667482
219	0x3dc9c967	0.098528676
220	0xbe406719	-0.18789329
221	0x3d405056	0.046951614
222	0xbe838f8e	-0.2569546
223	0xbd126ec9	-0.035750184
224	0xbe049107	-0.12945949
225	0xbd908519	-0.07056636
226	0xbd9ce2ab	-0.07660421
227	0xbd4bb99f	-0.04973757
228	0xbd3c99e7	-0.04604521
229	0xbb9887e1	-0.00465487
230	0xbdf39387	-0.11893373
231	0x3d54d8dc	0.051964626
232	0xbe0dad01	-0.13835527
233	0xbdd193b3	-0.102332495
234	0xbe334fce	-0.17510912
235	0x3d993c43	0.07482197
236	0xbe0016af	-0.12508653
237	0xbe092e14	-0.13396484
238	0xbd51064c	-0.051031396
239	0x3e425399	0.18977202
240	0xbd5c9dab	-0.0538613
241	0x3dce3712	0.100690976
242	0xbd55349b	-0.05205212
243	0xbd943bd7	-0.07237976
244	0x3e1fe66a	0.1561524
245	0xbe94166a	-0.2892335
246	0x3ca7c35b	0.020478895
247	0xbdd0c12a	-0.10193093
248	0xbd4cf600	-0.05003929
249	0xbd800616	-0.06251161
250	0x3d8df98c	0.06932363
251	0xbc1dfe7a	-0.0096431915
252	0x3e3e78a4	0.18600708
253	0xbd630ff1	-0.055435125
254	0xbe17a81b	-0.14810221
255	0xbdb8999f	-0.09013676
