Models/19.2_BachelierNet.pth (torch, 68903 bytes, 11 tensors)

weight_ih_l0 f4 [64, 1]
-0.1570067 0.5476097 0.50327986 0.4569287 0.52140343 0.42758742 -0.4361408 -0.14961793
0.6610348 0.6488074 0.65858763 0.48394108 0.16303602 0.280625 -0.16316697 0.45069113
0.23359819 -0.5801443 -0.06473622 -0.043637488 -0.13853835 0.35683644 -0.037284788 -0.17267081
-0.50432396 -0.45320097 -0.46740693 -0.4216445 0.03743461 0.15633321 -0.30105957 -0.5144082
-0.019982181 0.36966667 0.26170143 0.3764077 0.37549788 0.3280206 -0.0898235 0.038780507
0.4634631 0.5236791 0.34170875 0.39707705 -0.19544932 0.21867184 0.08844771 0.35310423
-0.3026833 0.42550898 0.3936456 0.24513115 0.43277162 0.45774877 -0.33609316 -0.17560653
0.72791404 0.07127536 0.69212097 0.40240672 0.3277157 0.20604853 -0.2186333 0.566588
00000000: 5dc6 20be 2630 0c3f f3d6 003f 8ff2 e93e
00000010: b27a 053f bdec da3e d94d dfbe 7135 19be
00000020: 9439 293f 3e18 263f 3399 283f 20c7 f73e
00000030: eaf2 263e 14ae 8f3e 3e15 27be fdc0 e63e
00000040: 5d34 6f3e 5684 14bf 6c94 84bd 39bd 32bd
00000050: ffdc 0dbe 44b3 b63e efb7 18bd 9ed0 30be
00000060: 601b 01bf f509 e8be f64f efbe cae1 d7be
00000070: 0955 193d d015 203e 7b24 9abe 41b0 03bf
00000080: acb1 a3bc f344 bd3e bbfd 853e 83b8 c03e
00000090: 4241 c03e 51f2 a73e 62f5 b7bd 4fd8 1e3d
000000a0: 094b ed3e d50f 063f 73f4 ae3e af4d cb3e
000000b0: de23 48be 83eb 5f3e 1324 b53d 14ca b43e
000000c0: 4ef9 9abe 50dc d93e eb8b c93e a903 7b3e
000000d0: 3e94 dd3e 0c5e ea3e 6714 acbe 33d2 33be
000000e0: 9358 3a3f d1f8 913d d72e 313f 4108 ce3e
000000f0: 5aca a73e 63fe 523e 68e1 5fbe e90b 113f

weight_hh_l0 f4 [64, 16]
0.424532 0.34767506 0.051016543 0.34968582 0.29746708 -0.08148191 0.028222537 -0.07073981
0.35570273 -0.02023624 0.18530336 0.38131678 0.4061264 0.034273326 0.3955016 0.46449068
0.016003635 0.3462409 0.017474795 0.24430712 0.101225145 0.17489953 -0.080703735 -0.03872597
0.33865303 -0.11397975 0.21884668 0.29371485 0.21707833 0.081183575 0.055326287 0.21541958
0.21555172 0.20508902 0.21753113 0.18790542 0.13603832 0.11825578 -0.099905945 -0.15211962
0.28139776 -0.07477801 0.43912554 -0.08040597 0.39475062 0.036546636 -0.13218074 0.19020613
-0.035410136 0.18130793 0.28577423 -0.09540572 0.09535412 0.3178139 -0.15228456 0.012696929
0.4701787 0.23124711 0.16463786 -0.23635525 0.13622501 0.24969214 0.04684057 0.38374248
0.33746132 0.098504096 0.113573626 0.21488106 -0.12013713 0.13596015 0.280227 0.10865138
0.05360393 0.2551662 0.23169897 -0.14487168 0.117892556 0.1077536 0.067510694 0.28824773
-0.0023233006 -0.034847986 0.2726737 0.04805958 0.0068272534 -0.13375434 0.19551858 0.025041731
0.09603773 -0.03790098 0.2958905 -0.051120844 0.13391988 -0.1390892 0.24643557 0.1502242
0.32761228 0.120074615 -0.0063044275 0.48438537 0.15991609 -0.13686502 -0.08567876 0.19005409
0.0932012 -0.05722545 0.481253 0.32537025 0.07627493 0.18477717 0.30103955 0.42184317
0.37642455 0.21754374 0.3464401 0.23690115 0.35506484 0.203828 0.24959984 0.18965997
0.45146504 -0.23260996 0.4870181 0.33358654 0.4517951 0.22343391 0.14460395 0.17632005
0.16624062 -0.003847761 0.23130451 0.20985526 0.33531696 0.24016297 -0.036065817 0.0045978334
0.07292212 -0.13939258 0.10209143 0.30110222 0.11329179 0.34219584 -0.05307519 0.27273148
0.20685264 0.17022942 -0.08634203 0.33618692 0.32592142 0.14082 0.13751253 0.09395215
0.101049356 0.04450803 -0.045458287 0.2894734 0.28707764 0.02227062 0.263659 0.37385157
0.14495473 0.12636101 0.06844391 -0.011972326 0.37660894 -0.15427366 0.03372544 0.0051977113
0.14634687 0.24822403 0.21413268 0.19394036 0.03218947 0.26370397 0.22499512 0.543768
0.18848354 0.024908379 0.018221863 0.17152499 0.099999435 0.2118616 -0.036579937 -0.09478538
0.44085985 -0.10054638 0.1888059 -0.15527962 0.38067845 0.2775555 -0.033918962 0.034393154
0.26177505 -0.18749687 0.3391907 0.26517966 0.42623338 0.24623299 -0.026357528 0.21914963
0.16823392 -0.028391201 0.18951494 0.020302968 0.14324713 -0.0046831127 0.024185503 -0.008066084
0.1608021 0.16313876 -0.038945105 -0.11390476 -0.10383496 0.09019324 0.08157685 0.04073896
0.513056 0.15587679 0.08468128 0.010425132 0.20171835 -0.18961658 -0.19108813 0.21111348
0.092485406 0.22302307 0.124570146 0.36726844 0.4781616 -0.027418137 0.42156354 -0.08516792
0.48812738 0.14565706 0.27013385 0.5443544 0.5601981 0.21648192 0.041400366 0.18120466
0.3334331 0.21626018 0.080664545 0.044099655 -0.050366357 0.17746544 0.21224312 0.34865493
0.13218231 0.17010182 0.397608 0.23580004 0.49591637 0.33379397 0.018404802 0.11785864
00000000: 425c d93e 7702 b23e b9f6 503d 050a b33e
00000010: 9b4d 983e fddf a6bd f332 e73c 09e0 90bd
00000020: ab1e b63e 79c6 a5bc 2ac0 3d3e f43b c33e
00000030: cdef cf3e 3062 0c3d 307f ca3e b9d1 ed3e
00000040: 0e1a 833c 7d46 b13e 4d27 8f3c a52b 7a3e
00000050: 214f cf3d dd18 333e 0048 a5bd 1f9f 1ebd
00000060: ee63 ad3e 376e e9bd 5819 603e cb61 963e
00000070: c849 5e3e 9343 a63d d19d 623d f396 5c3e
00000080: 97b9 5c3e db02 523e 7bc0 5e3e 476a 403e
00000090: a14d 0b3e 1630 f23d 7d9b ccbd 3fc5 1bbe
000000a0: 5e13 903e 3725 99bd 10d5 e03e e3ab a4bd
000000b0: c11c ca3e edb1 153d 635a 07be 65c5 423e
000000c0: 380a 11bd c9a8 393e 0051 923e 1364 c3bd
000000d0: 0549 c33d 81b8 a23e 7cf0 1bbe c806 503c
000000e0: 43bb f03e 0bcc 6c3e d496 283e 1c07 72be
000000f0: 927e 0b3e 4caf 7f3e e6db 3f3d e579 c43e
00000100: bbc7 ac3e 84bc c93d 4a99 e83d c809 5c3e
00000110: 750a f6bd 2339 0b3e ea79 8f3e 9d84 de3d
00000120: cb8f 5b3d 25a5 823e 7f42 6d3e 3e59 14be
00000130: a771 f13d ebad dc3d 0c43 8a3d 3595 933e
00000140: 8442 18bb c3bc 0ebd e39b 8b3e 1fda 443d
00000150: 27b7 df3b e6f6 08be 0636 483e 5124 cd3c
00000160: 6eaf c43d 0f3e 1bbd f67e 973e 1764 51bd
00000170: 4b22 093e 666d 0ebe 9b59 7c3e 5fd4 193e
00000180: ccbc a73e aee9 f53d 5f95 cebb 5c01 f83e
00000190: 0bc1 233e 5826 0cbe 5978 afbd 8a9d 423e
000001a0: 45e0 be3d 3c65 6abd cb66 f63e ee96 a63e
000001b0: 0836 9c3d 3a36 3d3e db21 9a3e d4fb d73e
000001c0: b8ba c03e c9c3 5e3e 9960 b13e 3796 723e
000001d0: 0fcb b53e 4ab8 503e 1a97 7f3e 3936 423e
000001e0: 6d26 e73e 4e31 6ebe 705a f93e dbcb aa3e
000001f0: b051 e73e dccb 643e 0f13 143e 3e8d 343e
00000200: fb3a 2a3e b82a 7cbb 17db 6c3e 4ce4 563e
00000210: aaae ab3e 48ed 753e c0b9 13bd 6ca9 963b
00000220: 3158 953d eebc 0ebe 5015 d13d 122a 9a3e
00000230: 8705 e83d 4b34 af3e 5f65 59bd 76a3 8b3e
00000240: 2ed1 533e 9f50 2e3e 17d4 b0bd b120 ac3e
00000250: 2cdf a63e 1e33 103e 16d0 0c3e fc69 c03d
00000260: f7f2 ce3d 0d4e 363d 7832 3abd dc35 943e
00000270: d7fb 923e e070 b63c 50fe 863e 7969 bf3e
00000280: 036f 143e c864 013e 522c 8c3d 9327 44bc
00000290: e3d2 c03e eaf9 1dbe b023 0a3d 9051 aa3b
000002a0: f4db 153e 712e 7e3e 9945 5b3e 4d98 463e
000002b0: 1bd9 033d 3504 873e 1f65 663e 6134 0b3f
000002c0: d401 413e a80c cc3c 0446 953c 3fa4 2f3e
000002d0: 81cc cc3d 3ff2 583e d8d4 15bd d61e c2bd
000002e0: 62b8 e13e 43eb cdbd 5556 413e 9f01 1fbe
000002f0: 49e8 c23e c11b 8e3e 9cee 0abd d6df 0c3d
00000300: 6107 863e 2eff 3fbe 67aa ad3e a1c5 873e
00000310: 433b da3e 8024 7c3e beeb d7bc c368 603e
00000320: 8345 2c3e aa94 e8bc 3410 423e 6952 a63c
00000330: 60af 123e cc74 99bb ad20 c63c 9c27 04bc
00000340: 4ea9 243e d90d 273e e784 1fbd e646 e9bd
00000350: 6ca7 d4bd 3cb7 b83d c311 a73d e5dd 263d
00000360: a357 033f 2a9e 1f3e 616d ad3d 2cce 2a3c
00000370: 418f 4e3e d92a 42be 9bac 43be 222e 583e
00000380: fd68 bd3d 2960 643e a21e ff3d 9c0a bc3e
00000390: 99d1 f43e 009c e0bc 2dd7 d73e 856c aebd
000003a0: d5eb f93e 2027 153e fc4e 8a3e cf5a 0b3f
000003b0: 2569 0f3f 70ad 5d3e 6e93 293d b78d 393e
000003c0: beb7 aa3e 4f73 5d3e 7433 a53d d7a1 343d
000003d0: f44c 4ebd 80b9 353e 4356 593e e682 b23e
000003e0: cd5a 073e 2c2f 2e3e 4793 cb3e 9175 713e
000003f0: c0e8 fd3e 0be7 aa3e abc5 963c df5f f13d

bias_ih_l0 f4 [64]
0.2510367 -0.071091086 -0.05531512 -0.17197545 -0.111811794 -0.00082203705 -0.12987371 -0.017936995
0.16111197 -0.14368106 0.14475769 0.042664345 -0.06928989 0.16121954 0.19434029 0.11268292
-0.1582453 0.29901645 -0.18849738 -0.026972178 0.30415285 0.12815541 0.09214183 0.19098724
0.28067952 0.08183781 0.037162308 0.19966897 0.09484154 0.011222861 0.10509237 -0.09660372
-0.23164262 0.019047841 -0.08413773 0.119234584 -0.11627637 0.11894446 0.02819812 0.016287688
0.13384354 -0.16347787 -0.27139834 -0.15278234 -0.044988126 -0.0050878935 -0.21192993 0.091063
0.3419711 0.005154698 -0.118863136 0.0010260844 -0.038114727 0.2341723 0.08085685 0.1458538
0.12782605 0.23865768 -0.049113482 0.19763654 0.3248397 0.27783632 0.18483047 0.19339646
00000000: e287 803e 3498 91bd 1b92 62bd 551a 30be
00000010: 95fd e4bd f97d 57ba 9dfd 04be 9bf0 92bc
00000020: 89fa 243e 2121 13be 5c3b 143e cfc0 2e3d
00000030: dce7 8dbd bc16 253e 2401 473e 4ec6 e63d
00000040: 0e0b 22be af18 993e 7505 41be c2f4 dcbc
00000050: ecb9 9b3e 2c3b 033e dbb4 bc3d 2992 433e
00000060: 3ab5 8f3e 959a a73d 8137 183d 0676 4c3e
00000070: 483c c23d 17e0 373c ab3a d73d 2cd8 c5bd
00000080: b933 6dbe 380a 9c3c 6750 acbd 4331 f43d
00000090: 4e22 eebd 2799 f33d beff e63c c26d 853c
000000a0: 480e 093e be66 27be b9f4 8abe f972 1cbe
000000b0: 7845 38bd 58b8 a6bb 2904 59be 3d7f ba3d
000000c0: d616 af3e bee8 a83b 846e f3bd ae7d 863a
000000d0: 301e 1cbd ddca 6f3e 4798 a53d b35a 153e
000000e0: d5e4 023e ae62 743e 382b 49bd 3c61 4a3e
000000f0: 6451 a63e 9040 8e3e 3344 3d3e b909 463e

bias_hh_l0 f4 [64]
-0.030894976 0.13929392 0.24058461 0.044754844 -0.12987912 0.11921154 0.18380232 0.016555289
0.32253563 0.1690609 0.15364727 -0.017890524 -0.04487921 -0.03382427 -0.16638099 0.37373358
-0.09016114 0.06791785 -0.14289062 -0.14639792 0.023024058 0.20762762 -0.006944084 0.0040600533
0.046826463 0.04510282 0.059881527 0.07396469 0.16674343 0.03348849 -0.21039802 0.33589935
0.13831396 -0.1262297 0.11700558 -0.09896631 0.06925537 0.15584128 -0.21829413 -0.15343437
-0.2602804 -0.1278298 0.16493843 0.070242606 0.11001269 0.080801904 -0.097599216 -0.18206808
-0.015582195 0.120119005 0.09813976 0.21435705 -0.04424709 0.037315816 -0.17310657 0.1339093
0.27818835 0.29407713 0.32560626 0.20545053 0.051026646 -0.022536417 -0.06786495 0.020209426
00000000: 7617 fdbc 11a3 0e3e d05b 763e db50 373d
00000010: 08ff 04be 2e25 f43d ad36 3c3e f59e 873c
00000020: 6423 a53e 4d1e 2d3e b655 1d3e 268f 92bc
00000030: 43d3 37bd 518b 0abd c75f 2abe 025a bf3e
00000040: 67a6 b8bd 8418 8b3d eb51 12be 56e9 15be
00000050: f39c bc3c 569c 543e 338b e3bb 320a 853b
00000060: 1bcd 3f3d bcbd 383d 5546 753d cd7a 973d
00000070: cabe 2a3e 3a2b 093d 9472 57be 00fb ab3e
00000080: 2da2 0d3e 5c42 01be 9fa0 ef3d d9ae cabd
00000090: c2d5 8d3d db94 1f3e 7f88 5fbe e61d 1dbe
000000a0: 7943 85be d1e5 02be 9fe5 283e 5bdb 8f3d
000000b0: 554e e13d 787b a53d 19e2 c7bd 0e70 3abe
000000c0: 764c 7fbc f400 f63d 80fd c83d 6a80 5b3e
000000d0: 703c 35bd 78d8 183d d942 31be 851f 093e
000000e0: b46e 8e3e 4791 963e ddb5 a63e a061 523e
000000f0: 5101 513d 4b9e b8bc c7fc 8abd 3d8e a53c

weight_ih_l0_reverse f4 [64, 1]
-0.4287276 -0.62698424 0.36113024 -0.15262777 0.122902185 -0.41411403 0.2572844 -0.2706202
0.67563415 0.64528745 0.5128291 -0.69848126 0.14314935 -0.3244034 0.5850696 -0.60250795
-0.022031048 -0.5193979 -0.49121276 -0.26068535 -0.06844508 -0.5578398 0.000502065 -0.26116347
-0.610489 -0.6184007 -0.3743819 -0.25139907 -0.052969813 -0.2604072 -0.43257123 -0.3396273
-0.2884441 -0.27413887 0.2848481 -0.16687028 -0.16416791 -0.11117564 -0.08093732 -0.14048654
0.4893946 0.5314965 0.4183529 -0.35701388 0.2099469 -0.25243798 0.32250106 -0.39388552
-0.43063 -0.24054995 0.26414627 -0.019431874 -0.14509515 -0.0065738065 -0.19554062 -0.32989824
0.5190547 0.66166383 0.41921234 -0.53278536 0.22799318 0.012262681 0.29989997 -0.6713351
00000000: 2f82 dbbe 0a82 20bf 10e6 b83e 744a 1cbe
00000010: 24b4 fb3d c106 d4be c8ba 833e bb8e 8abe
00000020: 5cf6 2c3f 8f31 253f c548 033f abcf 32bf
00000030: be95 123e 3418 a6be 1fc7 153f f63d 1abf
00000040: 757a b4bc 43f7 04bf 3d80 fbbe 8d78 85be
00000050: ef2c 8cbd 97ce 0ebf 039d 033a 38b7 85be
00000060: 0249 1cbf 824f 1ebf fcae bfbe 61b7 80be
00000070: e0f6 58bd 1854 85be fa79 ddbe a1e3 adbe
00000080: f2ae 93be ee5b 8cbe 9cd7 913e 0be0 2abe
00000090: a21b 28be 0eb0 e3bd 77c2 a5bd b4db 0fbe
000000a0: ee91 fa3e 2810 083f 5a32 d63e 86ca b6be
000000b0: 52fc 563e 8d3f 81be dc1e a53e 5dab c9be
000000c0: 897b dcbe ba52 76be 2e3e 873e 982f 9fbc
000000d0: d393 14be 1669 d7bb cd3b 48be 6ce8 a8be
000000e0: c5e0 043f cd62 293f 00a3 d63e 9f64 08bf
000000f0: 0b77 693e 69e9 483c 7d8c 993e 9edc 2bbf

weight_hh_l0_reverse f4 [64, 16]
-0.27058008 -0.069019735 -0.08877215 -0.24211276 -0.36387414 -0.24606578 0.24143964 -0.09271499
0.05604997 -0.17414188 -0.35986373 -0.05164264 -0.21265617 -0.039573383 -0.30657506 -0.11030211
0.09787986 0.098924786 -0.041481376 0.16060422 0.017177591 -0.08739105 -0.031785395 -0.0070875953
-0.4144762 -0.27603155 -0.0938723 0.016189795 -0.059653446 0.030155571 -0.14917286 0.15899548
-0.5016887 -0.075681515 0.12357761 -0.30539975 0.08458574 -0.20033313 -0.060116984 0.20646337
0.18070166 0.025292248 -0.08167199 0.09036082 0.099402055 0.09577567 0.15369159 -0.3171659
-0.1430349 0.026890332 -0.086413965 -0.12310946 -0.39597255 -0.09065395 -0.2813691 -0.40587503
-0.26216468 -0.31836876 -0.13754758 -0.29913747 -0.07424218 -0.047897454 -0.0981736 0.04046709
-0.036211103 -0.15625708 -0.54284084 -0.3274819 -0.2853755 -0.0023090313 -0.12506382 -0.30528215
-0.59220475 -0.47207803 -0.12202036 -0.33386377 0.04419085 0.08880519 -0.15688735 -0.10835416
-0.03778236 -0.032721773 -0.32823962 0.054661803 -0.1269893 -0.23086134 -0.15088192 -0.20585966
-0.375476 -0.29745212 -0.1877284 -0.38281083 -0.1768169 -0.11330563 -0.18784848 -0.047411647
0.15106653 0.04830867 -0.15570672 -0.020127226 -0.1555501 -0.27004674 0.06793401 -0.5053478
-0.0932595 -0.21935943 -0.4098832 -0.32578757 -0.3327322 0.085568696 -0.40403092 0.16962838
-0.32818845 -0.29632956 -0.110703476 0.051433116 -0.3953573 -0.2388576 0.061577007 -0.16326202
0.02109225 -0.08321367 -0.073397584 -0.027229512 0.081748135 -0.32489488 -0.21051346 0.037335955
0.0028013897 -0.045307267 -0.35648426 -0.18450493 0.10258363 -0.3159698 0.06708487 0.03872563
0.020447023 -0.30291757 -0.07226668 -0.09816044 0.120581314 -0.28469732 -0.39010274 -0.25237495
-0.3351651 -0.32295302 -0.30686134 -0.27513582 0.090390675 -0.3164429 -0.23818675 -0.0942196
-0.44509622 -0.4447428 -0.5827204 -0.26091588 -0.47452128 0.19967557 -0.04638019 0.011484136
-0.124391496 -0.22611853 -0.30373526 -0.14997582 -0.5279499 -0.08099058 -0.18585551 -0.41128144
0.1767129 0.100737415 -0.2674062 -0.25115916 -0.17293526 -0.14959328 0.0058906036 -0.15423022
0.1290786 -0.09024539 0.23912203 -0.17488256 -0.19069396 0.087491095 0.002981435 -0.18876134
0.12778817 -0.088555366 -0.07231943 -0.05325128 0.07114933 0.055502947 -0.11261252 -0.12466868
-0.16947576 -0.029367436 0.13298994 -0.38994718 -0.38610548 -0.18193148 -0.26624545 0.015215454
-0.06999522 -0.15255252 0.06303164 -0.20924638 -0.19710703 0.052103013 -0.31068107 0.20560865
-0.013143433 -0.004751065 -0.13566668 -0.05055812 -0.07159792 -0.24428286 0.07861767 -0.04547647
-0.17791964 -0.5610535 -0.16431203 -0.45868123 -0.16718744 0.12414167 -0.26992628 -0.06946009
-0.13824753 -0.12341818 0.023924867 0.038926814 0.14052136 -0.22601189 0.08573934 -0.15318364
-0.24557137 -0.14795588 -0.1628276 0.07142357 -0.15070745 -0.19315577 -0.12949692 -0.22375146
0.02275553 -0.014715005 0.107830286 0.2105971 0.13965918 -0.124343015 0.18920457 -0.09700496
-0.26335675 -0.2121346 0.05434486 -0.101529144 -0.03066052 0.15791163 0.11108831 -0.24726321
00000000: 7989 8abe 385a 8dbd 2cce b5bd 68ec 77be
00000010: b64d babe abf8 7bbe f43b 773e 5be1 bdbd
00000020: a794 653d 4052 32be 0f40 b8be 3c87 53bd
00000030: 8ac2 59be b317 22bd 68f7 9cbe 13e6 e1bd
00000040: 3c75 c83d 1499 ca3d 60e8 29bd 6f75 243e
00000050: 05b8 8c3c 14fa b2bd 6731 02bd 0f3f e8bb
00000060: 3936 d4be 0254 8dbe 1f40 c0bd 76a0 843c
00000070: 2c57 74bd d108 f73c c5c0 18be b6cf 223e
00000080: ac6e 00bf e9fe 9abd 4216 fd3d 5b5d 9cbe
00000090: 4a3b ad3d 2124 4dbe 3a3d 76bd 226b 533e
000000a0: db09 393e b031 cf3c a543 a7bd 180f b93d
000000b0: 4e93 cb3d 0926 c43d 5461 1d3e 9263 a2be
000000c0: be77 12be 1d49 dc3c cef9 b0bd d020 fcbd
000000d0: eabc cabe c7a8 b9bd 9c0f 90be dace cfbe
000000e0: 733a 86be 3b01 a3be 46d9 0cbe 8c28 99be
000000f0: 490c 98bd 1f30 44bd 3e0f c9bd d2c0 253d
00000100: 1852 14bd db01 20be 9ef7 0abf b5ab a7be
00000110: bd1c 92be 1e53 17bb bb10 00be f14d 9cbe
00000120: bb9a 17bf 36b4 f1be cfe5 f9bd 31f0 aabe
00000130: 7701 353d 7fdf b53d 14a7 20be c9e8 ddbd
00000140: adc1 1abd 4407 06bd 060f a8be 0ee5 5f3d
00000150: 7c09 02be ea66 6cbe ca80 1abe e0cc 52be
00000160: 643e c0be a54b 98be e03b 40be c8ff c3be
00000170: 7d0f 35be c80c e8bd 5a5b 40be b732 42bd
00000180: 2fb1 1a3e 50df 453d 9571 1fbe dae1 a4bc
00000190: 8748 1fbe 9143 8abe fc20 8b3d 795e 01bf
000001a0: d6fe bebd c29f 60be 36dc d1be a1cd a6be
000001b0: e05b aabe a43e af3d 24dd cebe 10b3 2d3e
000001c0: 5108 a8be 82b8 97be 81b8 e2bd 88ab 523d
000001d0: 466c cabe 1697 74be 2c38 7c3d 292e 27be
000001e0: a7c9 ac3c ee6b aabd 7951 96bd 6d10 dfbc
000001f0: 916b a73d 9f58 a6be d790 57be 96ed 183d
00000200: 8597 373b 1d94 39bd 1b85 b6be dcee 3cbe
00000210: 5e17 d23d cbc6 a1be cb63 893d c49e 1e3d
00000220: 8480 a73c 0318 9bbe 8e00 94bd 5708 c9bd
00000230: 56f3 f63d d9c3 91be 8cbb c7be 4a37 81be
00000240: c39a abbe 195a a5be ee1c 9dbe 9ade 8cbe
00000250: bf1e b93d ce04 a2be 3ae7 73be 35f6 c0bd
00000260: a7e3 e3be 54b5 e3be 2a2d 15bf c496 85be
00000270: 74f4 f2be c177 4c3e 27f9 3dbd f527 3c3c
00000280: f8c0 febd 9e8b 67be 3083 9bbe 4393 19be
00000290: ba27 07bf 64de a5bd e850 3ebe 7b93 d2be
000002a0: 3af4 343e 6b4f ce3d 77e9 88be ef97 80be
000002b0: f115 31be fb2e 19be f705 c13b 87ee 1dbe
000002c0: 2e2d 043e 93d2 b8bd 68dc 743e 6a14 33be
000002d0: 4745 43be 882e b33d 2e64 433b a74a 41be
000002e0: e7da 023e 845c b5bd 361c 94bd 041e 5abd
000002f0: bdb6 913d 0f57 633d 65a1 e6bd 4b52 ffbd
00000300: 0e8b 2dbe fa93 f0bc 842e 083e 28a7 c7be
00000310: 9eaf c5be 3f4c 3abe 5351 88be 3d4a 793c
00000320: a759 8fbd ba36 1cbe bc16 813d af44 56be
00000330: 6dd6 49be f869 553d 9711 9fbe 138b 523e
00000340: 8e57 57bc d2ae 9bbb 35ec 0abe 0816 4fbd
00000350: eea1 92bd 4925 7abe 4d02 a13d 8945 3abd
00000360: 9130 36be 34a1 0fbf 6a41 28be 44d8 eabe
00000370: 2f33 2bbe fd3d fe3d c733 8abe 1741 8ebd
00000380: c390 0dbe acc2 fcbd 15fe c33c b971 1f3d
00000390: d5e4 0f3e a96f 67be 1b98 af3d 2cdc 1cbe
000003a0: 1077 7bbe bf81 17be 47bc 26be 8546 923d
000003b0: 0e53 1abe a0ca 45be d79a 04be 1a1f 65be
000003c0: ce69 ba3c 3417 71bc 20d6 dc3d c4a6 573e
000003d0: d102 0f3e 8da7 febd d8be 413e 89aa c6bd
000003e0: b2d6 86be d039 59be b798 5e3d 83ee cfbd
000003f0: c52b fbbc 96b3 213e 4582 e33d 9132 7dbe

bias_ih_l0_reverse f4 [64]
-0.04368387 -0.024574434 0.2200827 -0.021425337 0.18685691 -0.010001625 0.061535034 0.20205887
0.24064611 -0.15240872 0.05759623 0.07678206 0.2634626 0.07782834 0.24750443 -0.0785304
0.13248797 0.19350421 0.30703807 -0.0840709 0.12547949 -0.06377682 -0.03892607 0.15674402
0.035368398 0.19675224 -0.050467532 0.4046249 -0.23222457 -0.0066578737 0.0877283 -0.098818295
0.03665145 -0.2145126 0.0046393275 0.14408973 0.20513628 0.07470656 -0.031375263 0.19242373
0.06391467 0.059757676 -0.14378572 -0.034314808 0.16295397 0.015219338 0.036533397 -0.16448967
-0.16671523 0.22039142 0.31224188 -0.07648932 0.48385715 -0.008108754 -0.26217562 0.4291669
-0.0135034025 0.18329817 0.04230959 0.08318753 -0.16007927 0.24079427 0.3976428 0.024142515
00000000: dced 32bd 5350 c9bc 5c5d 613e 3084 afbc
00000010: 6b57 3f3e dbdd 23bc 290c 7c3d 85e8 4e3e
00000020: ef6b 763e 0811 1cbe 06ea 6b3d ea3f 9d3d
00000030: 92e4 863e 7764 9f3d cd71 7d3e 8cd4 a0bd
00000040: edaa 073e f825 463e 1834 9d3e 5d2d acbd
00000050: b27d 003e 6c9d 82bd f170 1fbd 8181 203e
00000060: 74de 103d 6b79 493e 0bb7 4ebd ff2a cf3e
00000070: 47cc 6dbe 4b2a dabb e5aa b33d 3f61 cabd
00000080: d51f 163d 31a9 5bbe 8005 983b 428c 133e
00000090: 3f0f 523e c1ff 983d 5983 00bd ba0a 453e
000000a0: b2e5 823d 77c4 743d 903c 13be af8d 0cbd
000000b0: 68dd 263e 885a 793c 0ba4 153d fb6f 28be
000000c0: 66b7 2abe 4aae 613e 2bde 9f3e 6fa6 9cbd
000000d0: 20bc f73e 94da 04bc e23b 86be c4bb db3e
000000e0: 603d 5dbc 84b2 3b3e d24c 2d3d 395e aa3d
000000f0: d2eb 23be c692 763e d697 cb3e 86c6 c53c

bias_hh_l0_reverse f4 [64]
-0.28900555 -0.07273881 0.07351977 0.16108157 -0.11538896 -0.10721591 -0.077529676 0.3184767
-0.030527335 -0.2213517 0.24823278 0.16093929 0.20744902 0.0011552598 -0.117006175 0.12955335
-0.16966197 0.21794188 0.45032674 -0.039617173 0.088340186 0.09264239 0.16704673 0.4173572
0.03398239 0.26733273 -0.031355303 0.3297849 0.16187589 0.07683925 0.2976457 0.20157035
-0.060408216 0.06993914 -0.038224697 0.024492582 0.025134262 0.10357507 -0.20458817 -0.047938228
-0.1500446 -0.09466895 0.22119069 0.13881887 0.26814678 -0.016036646 0.017592771 -0.023462202
-0.2788731 -0.042708002 0.058850028 0.21000251 0.30251598 0.29476494 -0.019907994 0.40626484
0.32321587 0.09064297 0.3527874 0.1816961 -0.14450714 0.025618978 0.10505787 0.0802368
00000000: 89f8 93be 16f8 94bd 8891 963d 91f2 243e
00000010: 0c51 ecbd 0494 dbbd e1c7 9ebd 610f a33e
00000020: 7614 fabc 05aa 62be bc30 7e3e 45cd 243e
00000030: 846d 543e 166c 973a efa0 efbd a2a9 043e
00000040: debb 2dbe 282c 5f3e 3a91 e63e 9e45 22bd
00000050: b3eb b43d 4bbb bd3d 4c0e 2b3e d8af d53e
00000060: 1e31 0b3d d6df 883e 6b6e 00bd 91d9 a83e
00000070: cbc2 253e e65d 9d3d 0465 983e 7568 4e3e
00000080: 9b6e 77bd 403c 8f3d 8091 1cbd aba4 c83c
00000090: 5ee6 cd3c 2b1f d43d 907f 51be e05a 44bd
000000a0: 4ba5 19be cbe1 c1bd d07f 623e 8926 0e3e
000000b0: 894a 893e 495f 83bc b71e 903c ce33 c0bc
000000c0: 74c8 8ebe 96ee 2ebd ba0c 713d e60a 573e
000000d0: 60e3 9a3e 6eeb 963e 1716 a3bc f201 d03e
000000e0: 8d7c a53e 05a3 b93d 8da0 b43e 8b0e 3a3e
000000f0: aef9 13be e4de d13c 9528 d73d 3153 a43d

weight f4 [32, 32]
0.051079042 0.15838282 0.12860295 0.21510234 0.2216108 0.16825716 0.15988716 -0.03572469
0.24224317 0.20692435 -0.11848441 0.28365803 0.073422365 -0.032450855 0.09150189 -0.07612918
-0.26638263 -0.28101188 -0.056858126 -0.41352645 -0.12155768 -0.30880392 -0.16683999 -0.2852245
-0.12999715 -0.0033022086 0.08644241 -0.26844594 -0.2470512 -0.25863138 -0.20036 -0.24830043
0.19558322 -0.06906682 0.14594069 -0.11188934 0.19968727 0.066955425 -0.0999966 0.23107211
-0.11924682 0.05124112 0.10682418 0.176919 -0.06614649 -0.12490012 0.07165352 -0.111027576
-0.13299702 -0.10372208 0.035918936 -0.30194303 -0.14952216 -0.11298258 -0.21898256 -0.41121328
-0.07985945 0.03774148 -0.09160706 -0.032571733 -0.1753535 -0.08733105 -0.08731079 -0.43500742
-0.054559767 -0.069828436 -0.3019073 -0.03352477 -0.16109875 -0.21655534 0.014541744 -0.19871219
-0.18464988 0.07682075 -0.20199953 -0.3531885 -0.09999579 0.07475207 0.08692837 -0.051152572
0.12081137 0.23816897 0.08165953 0.33996096 0.19514658 0.32714462 0.2954356 0.27166247
0.07515172 0.10788654 -0.06198775 0.3626065 0.34120232 0.11183254 0.00667338 0.31543836
-0.24882181 -0.21636496 -0.30824292 -0.08413211 -0.17024875 -0.2320288 -0.17290008 0.027206054
-0.14709514 -0.25231448 -0.1843852 -0.2863591 -0.09265738 0.08455192 -0.20732237 -0.07089345
0.20974235 0.12212338 -0.0842642 0.25154743 0.16769049 0.38505277 0.02373538 0.13652748
0.14527373 0.07994511 0.115263455 0.34889808 0.121368945 0.29929164 0.23302011 0.40010732
0.13352591 -0.031920075 0.11215103 -0.014508594 0.26880878 0.2552232 -0.001822508 0.047901157
0.1657912 0.019174026 0.10248308 0.1626468 0.18051544 0.069840275 0.04901229 0.17594492
-0.23808695 -0.22219747 0.15717462 -0.1676209 -0.28506172 -0.258446 -0.11125094 -0.19017603
-0.15051265 -0.08803376 -0.23423535 -0.33152446 -0.23192042 -0.26821366 0.030232685 -0.21579397
0.32640126 0.008276197 0.27197018 0.00045247207 0.14465426 0.1492785 0.042697128 -0.045572344
0.056947745 0.22808652 0.15986107 0.34552103 0.084198005 -0.070010856 0.17166698 0.14286718
-0.16723955 -0.24089022 0.0052207937 -0.2914325 -0.33236298 -0.14817975 -0.18414906 -0.16520862
0.02976891 -0.06039184 -0.036187608 -0.31524542 -0.14770763 -0.15238483 -0.15092494 -0.33706626
-0.35255966 -0.17663282 -0.06257632 -0.081033394 -0.37531492 -0.16492267 -0.07543263 -0.19407614
-0.209172 0.004217519 0.07517857 -0.2876851 0.099544786 0.064997554 -0.08023615 -0.09666706
0.30282018 0.09726498 -0.09937617 0.42840302 0.16519798 0.06378037 0.24306129 0.3481608
0.020571195 0.014905693 0.08700186 0.27298123 0.30365747 0.07629143 -0.09300757 0.32331446
0.0066221002 0.032238875 -0.11977259 -0.112511195 -0.23048103 0.18040685 -0.06540112 -0.21414371
-0.016392872 -0.005174353 -0.020004071 0.020300422 -0.094421454 -0.021833481 -0.10087659 0.017397627
0.34682393 0.23527294 -0.1702259 0.26853707 0.16181646 0.14451806 0.1192249 0.3696078
0.13038777 0.32181597 0.047142047 0.17450947 0.25731006 0.31887567 0.024963157 0.42041022
00000000: 4238 513d 1b2f 223e 7eb0 033e ca43 5c3e
00000010: f1ed 623e 9b4b 2c3e 76b9 233e 0d54 12bd
00000020: 980e 783e fae3 533e f4a7 f2bd a03b 913e
00000030: 775e 963d 30eb 04bd 5865 bb3d 9ee9 9bbd
00000040: 4e63 88be cae0 8fbe 11e4 68bd bdb9 d3be
00000050: 3cf3 f8bd 8c1b 9ebe 1ad8 2abe f208 92be
00000060: f91d 05be de69 58bb b808 b13d bf71 89be
00000070: fdfa 7cbe 556b 84be 2c2b 4dbe 7842 7ebe
00000080: f846 483e e872 8dbd 7a71 153e 3d26 e5bd
00000090: d27a 4c3e ed1f 893d 04cb ccbd 2b9e 6c3e
000000a0: ad37 f4bd 35e2 513d a3c6 da3d 412a 353e
000000b0: d077 87bd a2cb ffbd 15bf 923d 6d62 e3bd
000000c0: 5f30 08be 3e6c d4bd bc1f 133d 4798 9abe
000000d0: 561c 19be 6963 e7bd f73c 60be 8c8a d2be
000000e0: 5a8d a3bd cf96 1a3d 7b9c bbbd f069 05bd
000000f0: de8f 33be 9fda b2bd 00d0 b2bd 4bb9 debe
00000100: 107a 5fbd 3602 8fbd 9893 9abe 4551 09bd
00000110: 12f7 24be afc0 5dbe 7f40 6e3c 357b 4bbe
00000120: dc14 3dbe 3354 9d3d f7d8 4ebe 20d5 b4be
00000130: 98ca ccbd 9d17 993d 8007 b23d 5c85 51bd
00000140: f46b f73d 91e2 733e 1d3d a73d 5d0f ae3e
00000150: 81d4 473e 807f a73e 5643 973e 5817 8b3e
00000160: 25e9 993d 9ef3 dc3d dee6 7dbd 8fa7 b93e
00000170: 12b2 ae3e 7508 e53d 5eac da3b 2381 a13e
00000180: 25cb 7ebe c78e 5dbe 04d2 9dbe 754d acbd
00000190: b055 2ebe f598 6dbe b80c 31be 3bdf de3c
000001a0: 1ca0 16be 5d2f 81be 79cf 3cbe a99d 92be
000001b0: 27c3 bdbd 8f29 ad3d 514c 54be 9630 91bd
000001c0: b3c6 563e d31b fa3d b592 acbd d3ca 803e
000001d0: 0eb7 2b3e a325 c53e b370 c23c dccd 0b3e
000001e0: a3c2 143e 43ba a33d 3f0f ec3d c5a2 b23e
000001f0: 4890 f83d c13c 993e d39c 6e3e deda cc3e
00000200: 04bb 083e a0be 02bd 70af e53d 74b5 6dbc
00000210: 4ea1 893e 9eac 823e 39e1 eeba 0134 443d
00000220: 2bc5 293e d912 9d3c a6e2 d13d e28c 263e
00000230: 0ad9 383e 6b08 8f3d 1cc1 483d e82a 343e
00000240: 11cd 73be bc87 63be 62f2 203e d0a4 2bbe
00000250: 9cf3 91be 0953 84be 88d7 e3bd 81bd 42be
00000260: fd1f 1abe 0b4b b4bd 64db 6fbe 93bd a9be
00000270: 8c7c 6dbe 4d53 89be 89aa f73c 18f9 5cbe
00000280: 111e a73e e398 073c ad3f 8b3e c639 ed39
00000290: 3f20 143e 77dc 183e 2fe3 2e3d 11aa 3abd
000002a0: 0a42 693d 838f 693e 9fb2 233e 22e8 b03e
000002b0: 0170 ac3d da61 8fbd 78c9 2f3e c64b 123e
000002c0: d840 2bbe edab 76be 3113 ab3b a436 95be
000002d0: 7b2b aabe 6fbc 17be 9291 3cbe 732c 29be
000002e0: eedd f33c 6f5d 77bd 7539 14bd d967 a1be
000002f0: ab40 17be c50a 1cbe 118c 1abe f393 acbe
00000300: b382 b4be 3cdf 34be 0328 80bd d6f4 a5bd
00000310: 4729 c0be 7de1 28be 6c7c 9abd e5bb 46be
00000320: 2f31 56be 1d33 8a3b 39f7 993d 764b 93be
00000330: 23de cb3d 701d 853d da52 a4bd 61f9 c5bd
00000340: 3f0b 9b3e dd32 c73d bc85 cbbd a457 db3e
00000350: a929 293e 489f 823d 0fe5 783e 2242 b23e
00000360: ec84 a83c 0237 743c 082e b23d 32c4 8b3e
00000370: fe78 9b3e ae3e 9c3d c17a bebd 7989 a53e
00000380: 34fe d83b e90c 043d 554b f5bd 456c e6bd
00000390: 3803 6cbe 93bc 383e 06f1 85bd 7d48 5bbe
000003a0: 584a 86bc 9e8d a9bb 94df a3bc 124d a63c
000003b0: 0960 c1bd 21dc b2bc 6398 cebd 7885 8e3c
000003c0: e892 b13e 64eb 703e b34f 2ebe b17d 893e
000003d0: 37b3 253e 8bfc 133e 2f2c f43d 3c3d bd3e
000003e0: 5f84 053e 10c5 a43e 0518 413d 9cb2 323e
000003f0: 25be 833e ac43 a33e 897f cc3c 0240 d73e

bias f4 [32]
0.13623673 0.07757822 -0.102497436 0.11189331 0.05864451 0.007336801 -0.05672422 -0.0460636
0.011903254 0.053694718 0.06806581 0.048136324 0.007207669 -0.03621238 0.15856545 0.09131928
0.020310821 0.07411536 -0.058684833 0.14225136 0.13395052 -0.16433027 0.07836309 0.0296319
0.030794978 0.04545953 0.16596165 -0.016551184 0.15213637 0.15278347 0.066273674 -0.02656614
00000000: a481 0b3e 54e1 9e3d 2dea d1bd 5228 e53d
00000010: 3a35 703d 8c69 f03b a857 68bd 2fad 3cbd
00000020: de05 433c feee 5b3d 1666 8b3d 982a 453d
00000030: 4f2e ec3b 6f53 14bd fb5e 223e 9a05 bb3d
00000040: e162 a63c cbc9 973d 825f 70bd 57aa 113e
00000050: 532a 093e 3246 28be d47c a03d 99be f23c
00000060: c045 fc3c c633 3a3d daf1 293e 5996 87bc
00000070: a3c9 1b3e 4573 1c3e 7eba 873d 3ca1 d9bc

weight f4 [1, 32]
0.5518636 0.24051107 -0.63174504 -0.50314254 0.48146453 0.512607 -0.5084841 -0.2840924
-0.29360506 -0.34430358 -0.46790805 -0.3094955 0.4782669 -0.5588155 -0.42336336 0.4482839
-0.22366087 0.5804395 0.3059024 0.2828928 -0.18897827 -0.6377803 0.35353976 0.75282335
-0.33252275 0.50115126 0.46886027 0.33897042 -0.7105009 0.493798 -0.4060056 -0.5239059
00000000: ef46 0d3f 8948 763e 0bba 21bf f3cd 00bf
00000010: 8582 f63e 363a 033f 042c 02bf 8f74 91be
00000020: 6753 96be 8f48 b0be a591 efbe 3276 9ebe
00000030: 66df f43e 880e 0fbf 15c3 d8be 7885 e53e
00000040: 5b07 65be af97 143f 3d9f 9c3e 53d7 903e
00000050: 8583 41be 9245 23bf 2a03 b53e 08b9 403f
00000060: 6c40 aabe 734b 003f 740e f03e 888d ad3e
00000070: 63e3 35bf 17d3 fc3e f7df cfbe b21e 06bf
